saved_models/actor_ep600.pth (torch, 872215 bytes, 21 tensors)

log_std f4 [6]
00000000: 0c1d c0bf 48f3 c3bf a016 b0bf 0768 c2bf
00000010: 50bf d1bf 6deb babf
-1.5008864 -1.5308619 -1.3756905 -1.5187997 -1.6386509 -1.4603096

net.0.weight f4 [256, 17]
00000000: 2dee babe 0b89 273f 1357 f13d 313c 093e
00000010: a2fb 693d a618 083e dddb 383e 8a73 dcbe
00000020: 5494 e03d a575 8bbe b1df c1be 14cd 41be
00000030: e4e8 ecbb 64ad 3d3d 3184 433e 5da8 6b3c
00000040: b29c 663d a59d 503e f84b 0c3b 4bd7 e13e
00000050: 40b5 acbd e297 95bd 6152 0bbe 0525 cf3d
00000060: bf10 50be 18d3 463e f2fe 03bd 52eb b7bd
00000070: ae15 0b3b 7b70 0f3d ea0e a33d 7824 2f3e
00000080: 6410 fc3d ea03 c33d d55a f63d ed88 0abf
00000090: 17cc d53d 4b03 2dbe f472 96be b9da f73b
000000a0: ece7 0fba 120a 25be a8d4 193e 7a60 65be
000000b0: d6dd a7be bddd 0abe 2e88 d13c 8bc4 e33d
000000c0: c4d8 b9bd 512b 88ba bd87 01be 0b3b efbc
000000d0: ac93 9a3c 024c c6bd aa21 acbd 1d77 903e
000000e0: 81b0 c3bd ddf9 2abd 4c00 933c 6194 093e
000000f0: 5f6b 2e3e dc74 bd3d 6f61 73bd b352 62bd
00000100: cb92 223e 1af6 22bd 17db 0bbe fd56 713d
00000110: a0ae 4bbd 8b80 99be 264f 67be 137c e33e
00000120: 6e23 43be d562 c93d 454b 9b3d 7410 683e
00000130: fa9d 36be 95ae 0cbe adb2 acbe 9842 a3bd
00000140: 1e89 13be 7425 f23c f105 9ebc 5140 c73d
00000150: fca5 e2bc d168 043e c7e1 633e b039 d4ba
00000160: 2ccf 7bbe 0b4e 0fbe 7ed7 73be f070 953c
00000170: ee92 303e f9c8 8abe 6354 59be 103a 363b
00000180: fe5f 68be 90a3 20be 8b97 36be aba6 0b3e
00000190: 2aad 75bd 6df2 66be c696 bf3d accb dfbe
000001a0: e50a 00bc 6a69 cebe 96e9 783d ff98 adbe
000001b0: fefc 70be ffb8 35be 8711 e8bb 8028 fabe
000001c0: 40b7 113e 6a30 143d 0daa 503e 974d 7f3c
000001d0: 81d9 0abe a826 3ebd ac91 97bd 6ef9 703e
000001e0: 10b9 303d e830 b53c 3cee 35be d359 653e
000001f0: 2fae c5bc 88cb 763d 5c40 4fbe 530d 483e
00000200: 089e cdbd 333e 01bc d3d5 413e 798a d03d
00000210: 12ce a5bd 332d 763e f459 2c3e d58e 01bd
00000220: 24da b23e 85a5 85be 6638 80be 84b3 b3bd
00000230: 0559 6b3e ad24 99bd 3a9c 9f3d e336 fb3d
00000240: 55ba 2bbe 053b 39be 1f76 aebe 0ad8 33be
00000250: 0f3a 97be dc34 f0bd df66 e43d 4fc6 74bd
00000260: 989d b83d 13da ec3d 5fd6 493e eeda 3abe
00000270: f9ec 85be 28a0 973d 3017 a23e f5b9 713e
00000280: 798b 643c 7387 113e 0d6a 5f3e 3d7b 303e
00000290: 2fcb 6c3e c9a0 d83d 3604 183d fc04 8abd
000002a0: 5a13 703e 5c58 2abe 7700 8abe 5d32 cf3e
000002b0: 7613 a23e 73c4 543e 167e 1bbe 8579 bf3e
000002c0: a7a8 483e 3afe 813e 320c 063d acd1 213e
000002d0: a8f1 9abd 036d 98bd 6a15 303e 94dc a5bd
000002e0: ae1a 693e 83de dc3d cf66 ab3d a87f 56be
000002f0: 7b19 703d 09c4 46be 93bb 2d3c 8823 88be
00000300: 765d 62be e09e 84be a38d 5a3e 7907 8abd
00000310: 647c 9cbe 4337 d23d 023c b3bd 99b3 c23d
00000320: 2244 3bbe fbed afbd 3802 863a a18b 41bd
00000330: ba69 26bd c453 fabe dcd1 be3e d10c 033f
00000340: 1fde babc 2d92 3b3e f4cf 64be dd4c a43d
00000350: 2be3 7bbe 9a01 33bd 1995 d5be 146d 893b
00000360: 39b1 4dbe fbcf e83d f6a9 72be 988f 8dbd
00000370: 2865 b73d 4dcc ae3e 9697 92be 3722 893c
00000380: f603 323e 3afa 133e ee11 a5be 0c09 aabe
00000390: 92c8 5dbe b121 0e3e be16 d6bd 1610 f1bd
000003a0: bc17 0dbe 9cdd 0f3e 37f2 083e 6dc8 323e
000003b0: dc6e e93c 21f9 28be 7d55 e3bb af99 abbd
000003c0: 3076 aebe e649 93be c2ca 80be 3be0 99be
000003d0: 4a6b 103e fe0f 333e 1305 333d d22c 453e
000003e0: 41be 003e 640a f5bd 6a2c 0c3e 3213 463e
000003f0: be13 f93d 66b1 513e 4c64 50be c356 b63d
-0.3650984 0.65443486 0.11784186 0.13401867 0.05712474 0.13290653 0.18052621 -0.430569
0.10965791 -0.27238193 -0.37865975 -0.18925887 -0.007229911 0.046307936 0.19093396 0.014383403
0.05630178 0.20372637 0.0021407586 0.44109568 -0.08433008 -0.0730436 -0.13605644 0.10114483
-0.20318888 0.19416463 -0.032225557 -0.08980431 0.002122264 0.03501938 0.07961829 0.17103755
0.12307814 0.09522231 0.120290436 -0.5411518 0.10439318 -0.16895787 -0.29384577 0.0075639156
-0.0005489576 -0.16117123 0.15022528 -0.22400084 -0.32786435 -0.13561149 0.02557763 0.11121472
-0.09074548 -0.0010388886 -0.12649436 -0.029202959 0.018869244 -0.09682466 -0.084048584 0.28215876
-0.0955515 -0.041742194 0.017944477 0.13435508 0.17033146 0.09250805 -0.05941909 -0.05525465
0.1587631 -0.039785482 -0.13657795 0.05892085 -0.049727082 -0.29980883 -0.22588786 0.444306
-0.19056484 0.09833304 0.07582716 0.22662526 -0.17833701 -0.13738473 -0.3373007 -0.07971686
-0.14407775 0.029558875 -0.019289942 0.09729064 -0.027667038 0.1293061 0.22254096 -0.0016191509
-0.24590749 -0.13994615 -0.23812672 0.01824233 0.17243549 -0.27106455 -0.21223597 0.0027805604
-0.22692868 -0.15687394 -0.17831247 0.13637798 -0.059979595 -0.22553416 0.093549296 -0.43710077
-0.007815097 -0.403148 0.06076964 -0.3390579 -0.23534009 -0.17746352 -0.0070821675 -0.48859024
0.1423006 0.036178984 0.20377369 0.015582464 -0.13559534 -0.046423584 -0.074008316 0.2353265
0.04314524 0.022118047 -0.1776666 0.22397546 -0.024130909 0.060252696 -0.20239395 0.19536333
-0.10039908 -0.007888365 0.18929224 0.101826616 -0.080959454 0.2404068 0.1683119 -0.031630356
0.34932053 -0.26102844 -0.2504303 -0.08774474 0.22983177 -0.074776985 0.0779347 0.12266328
-0.16770299 -0.1808892 -0.34074494 -0.17562881 -0.29536483 -0.11728832 0.111524336 -0.059759434
0.090144336 0.11565032 0.19710682 -0.18247578 -0.26157358 0.07403594 0.31658316 0.23606093
0.0139492685 0.14211826 0.21817799 0.17234512 0.23124383 0.10577542 0.03711339 -0.06739232
0.23444882 -0.16635269 -0.2695348 0.40468112 0.31655473 0.20778064 -0.15184817 0.373974
0.19595586 0.25389272 0.032726474 0.1580264 -0.075656235 -0.07442667 0.17195669 -0.080987126
0.22764084 0.10784628 0.083692186 -0.20947134 0.05861805 -0.19410719 0.010603803 -0.26589608
-0.22105965 -0.25902462 0.21343093 -0.067397065 -0.30563653 0.102644466 -0.0875168 0.09506912
-0.1828771 -0.08590313 0.001022405 -0.0472523 -0.040628172 -0.48892033 0.37269485 0.5119143
-0.022810994 0.1831748 -0.22344953 0.08022473 -0.24598376 -0.0437027 -0.41715315 0.0041939113
-0.20087136 0.11367794 -0.23697647 -0.06912154 0.08954841 0.34140244 -0.28631276 0.016739948
0.17384323 0.14450923 -0.32240242 -0.33210027 -0.21658543 0.1388004 -0.104535565 -0.11770646
-0.13778585 0.14049381 0.13373648 0.17459269 0.028495245 -0.16501285 -0.006937681 -0.08378922
-0.34074545 -0.28767318 -0.25154692 -0.30053887 0.14103428 0.1748657 0.04370601 0.19255379
0.12572576 -0.119648725 0.13688818 0.1934326 0.12161969 0.20477828 -0.2035076 0.08903267

net.0.bias f4 [256]
00000000: 9f21 aa3d 4022 f6bc f6ca 133e e422 2ebe
00000010: 2f9d 6dbe 6361 dabc 1d8a fc3d 78b2 6fbe
00000020: adef 81be ca7d 2d3e f502 f5bd 6cca bfbd
00000030: 7cf5 4b3e 1541 a4be c1be 8bbc cb58 053e
00000040: 7df5 b33b 8936 5bbe 9548 86bd 1b1c 7a3e
00000050: c94f 56bc a379 6ebe cb19 713d e842 903e
00000060: a366 033c 0371 71be 2138 753d c853 803e
00000070: b6dc b6bd 023b 5a3e 608b ba3b 5179 fabd
00000080: 4599 a53e d61b 03be 8644 993e e08e 613e
00000090: 2a8a 0bbe 18b5 b53d a29f 9cbd 8528 2dbd
000000a0: f02e 7cbe b556 bd3d 7e88 b43c aca2 9dbd
000000b0: 638c 24be b58a 9bbd 4ce4 99be 5cb8 56be
000000c0: e286 313e 1bd4 89bd 6974 d7bd 27f8 25be
000000d0: ca36 3e3d 090e cbbd ac23 113e bac5 dc3d
000000e0: 2469 94bd 4368 fcbd ba3b 43be e75d 59be
000000f0: 334e afbd ce55 15bc e07a bcbe 1a70 58be
00000100: 2d0a 74be 288b 2bbc d552 013d 0243 9e3d
00000110: 6085 7dbc 3bef c5bd b0f4 e1bd fb3b 76be
00000120: 1312 fcbd 7f33 15be eb59 d93d 3f0c 44be
00000130: 2a7e a4bb 09e9 b3bd 3d2a 11be e7d8 53be
00000140: 07ba 10be 0396 dc3b 1ede 36be 89c2 f43c
00000150: 6b45 653d 783a 903d 398a 0bbe 1015 783c
00000160: be1c aebc de89 a03d b959 1ebe deb7 28bd
00000170: 831e 6f3d a1e0 74be bc43 b1bd 088e 33be
00000180: 7d2c 97be 0b6b 9cbe f620 c2bd 1206 db3d
00000190: 6815 a0bc e946 0ebe 57bc a8bd 835e 98be
000001a0: c3a5 be3d 3270 013e 7a01 f83c 94e3 4f3d
000001b0: e1d8 e03d d7bd 18be 74d1 97be a5ac 693d
000001c0: a8fd 25be 3059 9fbe 6e43 55bd b441 79be
000001d0: 57d4 7c3e f098 d1bc ece0 3d3e b830 a6be
000001e0: a0a2 5cbe 59aa 603e cb79 bc3d 658f efbd
000001f0: b6b7 99bd bfbf 153e 5a4d 7d3e caca 7f3c
00000200: 7154 0cbc 7337 da3d 8f6e 14be 1e0b 85be
00000210: 8e4d 4a3d efde a5be 3227 09be 8d8f 143d
00000220: 88a3 ab3d e0d5 edbd 7edc 9dbd 5e8f fabd
00000230: 1580 263e 7965 25be a4a1 6a3d e0a7 eebd
00000240: 6f6f 41be bfce 7d3e 6e98 b23d 6a9f 4dbe
00000250: 6ee7 0f3d 2e1d e0bd e132 f13b 8191 0fbc
00000260: b82f 42be 6cbe 883d 9177 6b3d c858 3ebe
00000270: fc1a d33b c65b 80bd 0ea1 52be 68ad b1be
00000280: 9442 91be 1778 063d 9e01 00be 1308 563d
00000290: bf0c 97be 7b3b 05bd 1fe1 a93d a575 733d
000002a0: 669a 463d 6b6c 2cbe a514 66be d9f1 83bc
000002b0: a6f4 bbbd e8d8 8a3d bb02 ce3d 26af a73e
000002c0: c2f5 13bd 99f3 09bd 1afd 9b3d 1910 b6be
000002d0: 4750 0c3e 2feb 26be 519b d2bd 2c80 56be
000002e0: fb14 6b3c cc80 7c3c b71d 2e3e b948 6dbe
000002f0: 32da bbbd e128 4e3e d2a3 813e c634 3e3e
00000300: 9799 c8be 505b de3d cb93 fcbd 209d babe
00000310: ad6d 09bd 7411 18be fede 423c d085 ce3d
00000320: f9b5 bdbe b9de 3bbe a338 413c c032 7d3e
00000330: e5d4 17be 598e 093d 5a6a c93d da59 a93d
00000340: 18b7 f7bd 2515 6fbc bd0b d7be 8887 273d
00000350: ca4d 60bd e757 60be f8d9 48bc 9ff2 d0be
00000360: ce8e 59bd 2735 ee3c 90e8 5ebd b945 a3be
00000370: abae ea3d cdbe 613b fa7f fabd f163 843e
00000380: def4 853d 853e 58be 2987 af3d a413 e63c
00000390: 7ac0 163e ddfb 69be 8904 9f3c 4ec0 393e
000003a0: 3f22 87bc 63fb 0a3e 0c5e 87be b2ac 75be
000003b0: 9769 0dbe 1ea9 dabd 5f37 fb3c ecbe c73d
000003c0: 6097 22be 0190 92be baf3 42bd ff90 7ebe
000003d0: 9c55 81be f895 a4be f9a0 89bd ac09 efbd
000003e0: 533e cebd 9f08 473d 66a2 3fbe cb0f 79be
000003f0: b185 993e 65dc 32be 7582 bebd eadc 87be
0.08307194 -0.030045629 0.14432892 -0.17005497 -0.23204492 -0.026657766 0.123310305 -0.23407924
-0.2537817 0.16942516 -0.11963455 -0.09364781 0.19917864 -0.32080904 -0.017058732 0.13022153
0.005491911 -0.21407522 -0.06556813 0.24424784 -0.013080546 -0.23288588 0.05886249 0.28176045
0.008020076 -0.23578267 0.05986798 0.2506392 -0.08928816 0.21311572 0.0056928843 -0.122301705
0.32343498 -0.12803587 0.29935092 0.22027159 -0.13626924 0.088724315 -0.07647635 -0.04227497
-0.2462728 0.09245054 0.02203774 -0.07697043 -0.16069178 -0.07594816 -0.3005699 -0.20968765
0.1733661 -0.06729909 -0.1052025 -0.16207944 0.04643897 -0.09914786 0.14173764 0.10779901
-0.072466165 -0.12324574 -0.19065753 -0.21227227 -0.08559837 -0.009114696 -0.36812496 -0.21136513
-0.23832007 -0.010470189 0.031573135 0.077276245 -0.015473694 -0.0966477 -0.110329986 -0.24046318
-0.12308135 -0.14570425 0.106128536 -0.19145297 -0.0050199227 -0.08784682 -0.14176269 -0.2068821
-0.14133464 0.00673175 -0.17858168 0.029877918 0.055974405 0.07042402 -0.13626947 0.01514174
-0.02125394 0.07838796 -0.15463914 -0.041190974 0.058378708 -0.23913814 -0.086554974 -0.1753465
-0.2952613 -0.30550417 -0.09478943 0.10694517 -0.019541457 -0.13894238 -0.08239048 -0.29759607
0.0930896 0.12640455 0.030274142 0.050754145 0.10978866 -0.14916168 -0.29651988 0.057049412
-0.16210043 -0.31122732 -0.05206626 -0.2434147 0.24690376 -0.025585622 0.18542832 -0.32459044
-0.21546412 0.21939982 0.09202918 -0.11697272 -0.07505743 0.14623927 0.24736539 0.0156123135
-0.008565054 0.10655107 -0.144953 -0.25985044 0.04939037 -0.32396647 -0.13393858 0.036269713
0.083808005 -0.11613059 -0.07708071 -0.12234376 0.16259797 -0.1615199 0.05728306 -0.11653113
-0.18890165 0.24785899 0.0872048 -0.20080343 0.035132818 -0.109430656 0.0073608016 -0.008762718
-0.18963516 0.06676945 0.057487074 -0.18588555 0.006442426 -0.062675044 -0.2056925 -0.3470261
-0.28371108 0.03282937 -0.12500617 0.052253794 -0.29501912 -0.032527428 0.082948916 0.059438366
0.04848709 -0.16838233 -0.22468813 -0.016106533 -0.09177522 0.06779653 0.100591145 0.32750815
-0.036123045 -0.03367958 0.07616635 -0.35559157 0.13702498 -0.16300653 -0.102835305 -0.20947331
0.014348264 0.015411567 0.17003523 -0.23172273 -0.09172477 0.20132782 0.25320297 0.18574819
-0.3917968 0.1085726 -0.12332877 -0.36448002 -0.03355186 -0.14850408 0.011893986 0.100841165
-0.37052897 -0.1834668 0.011793288 0.24726391 -0.14827307 0.03358302 0.09834738 0.08269091
-0.12095469 -0.014592444 -0.42001143 0.040900737 -0.054761685 -0.21908532 -0.012258999 -0.40810105
-0.053114705 0.02907808 -0.054421008 -0.31889132 0.114590965 0.0034446002 -0.12231441 0.258575
0.06540845 -0.211176 0.08570702 0.028085537 0.14721861 -0.22849984 0.019411342 0.18139765
-0.016495822 0.13572459 -0.2643894 -0.2399166 -0.1380981 -0.10676788 0.030666051 0.09753212
-0.15878057 -0.2862549 -0.047595717 -0.24859999 -0.25260627 -0.32145667 -0.06720156 -0.11671767
-0.10070481 0.048592206 -0.18714294 -0.24322431 0.2998481 -0.17466886 -0.093022265 -0.26535732

net.2.weight f4 [256, 256]
00000000: dffe c8bc 20b8 93bd 60ff 75bc c049 d53c
00000010: c012 bbbd b57b 993d b038 603d ee8c 7f3b
00000020: c553 3ebd c87a 10bd f0cb b3bd c381 6abd
00000030: 6995 febd cac1 a4bc 3ab0 763d 4cd8 4e3d
00000040: 2237 3cbd fafd 63bd 6a15 4f3d 1e97 0f3d
00000050: 5f7d 49bd 869c 763d f909 85bd 2730 ebbc
00000060: 6a05 14bd bb91 ebbd 8fc3 d23c 6d89 4ebd
00000070: 2fb5 5d3a a4bf 86bd dacc cbbc 82da 953d
00000080: 07c7 853c 8e94 2bbc f4db 11bd 622a e1bd
00000090: 4eda adbd 2f94 88bc 436d 823d 14b0 16bd
000000a0: af78 0cbd f068 0abd f436 7ebc 451f 2dbd
000000b0: 3c64 a0bd 4300 7b3d 1c3e 0d3d 0aef 86bd
000000c0: b90f c7bd 1119 51bd 12f3 74bd 2582 d8bc
000000d0: 4755 0b3a 5ae4 dd3c ffe6 a13d 4dec 853a
000000e0: d0df d3bd 356f efbd e517 96bd a885 e63a
000000f0: 0ffa 6abd bd55 d9bd c90c 3f3c 246f 11bd
00000100: 3e06 94bd a0e5 5cbd 6a2b 12be c0f1 0b3c
00000110: 4aad 48bd fe34 04bd 30ac 8a3c 66d2 ccbc
00000120: 4f1e 89bc 27e4 45bd f8d2 cb3b 6d63 e83c
00000130: db44 9cbb d5c8 15be b182 263d 045e 253c
00000140: 31a2 15bd c56a 83bd 75f8 a9bc 1e59 b6bd
00000150: 2d9b 3cbd edcb c2bc bd10 95bc a043 c0bd
00000160: 64e0 a4bd 8f72 22bc 60ea 58bd 8176 693d
00000170: 87e4 4dbd 1120 d7bc e49b 92bd 2d82 86bd
00000180: 223e b8bc dc1d 39b8 6731 71bd 2419 4bbd
00000190: 6992 f03c b561 3b3d 997a 05bd be34 2a3d
000001a0: c21b 21bc c547 d8bc 3f6e f2bd a03c 5dbd
000001b0: 5104 223c 08d6 a13d 6d27 3b3d 310e 3dbd
000001c0: 35d3 c8bd ed6c 353d 7335 b2bd 56e2 41bd
000001d0: 65ee 34be 8ee6 873a 0098 55bb c9b9 bcbd
000001e0: 0592 e7bd cc9a 99bd 31a4 73bd dd9f b2bb
000001f0: d594 73bd d32e b6bb b246 a7bc dc8f 4abc
00000200: ff02 a93d ed66 ccbc 3d24 36bc e913 ccbd
00000210: 8798 3f3b 231b 55bc c257 183d c87a 83bd
00000220: 5f68 b0bc 1048 6abd 5cf2 e7bc bf7b a8bd
00000230: 7065 2bbe a13a a2bc 886f 253d 3b9a 933d
00000240: 02f1 b9bd 4388 aebd 7694 303d 8e37 0a3d
00000250: e829 8ebb 458a b8bd 1430 58bd 31b5 dd3b
00000260: e8a5 a5bd 8405 dc3c f758 85bd ebd6 c1bc
00000270: a8df b53c ae09 2b3d e7de 69bd e4f9 5e3d
00000280: 4461 523d 379a 15bc 667d 58bd f78e a8bd
00000290: 717b 11bd 7776 d03c 4d50 8abd fce3 8e3c
000002a0: d3f2 cc3c dc2e 32bc 6612 85bc 4477 3abd
000002b0: 592c a33d 0cd8 51bc 44b7 523d dfc7 82bd
000002c0: c08f 8cbd d2b9 cabc ddde 91bd e3e3 80bc
000002d0: d3a5 033d 86c5 b6bc cdd2 e5bb 3036 6a3c
000002e0: 401a 24bd 4980 313c 851c a9bd 9016 063d
000002f0: 6962 efbc 4ae0 45bd 173d adbd ba53 07bd
00000300: ba9a 49bc 1bd4 91bd f0ed 05bd 1fc7 68bd
00000310: 150a 743c d1b6 b1bd 2892 e2b9 80c3 a63c
00000320: e3ae 8bbd a8a3 4fbd 1d98 b9bd 98de babd
00000330: 8f21 20be 6605 28bd f451 cbbd d215 7ebd
00000340: c45c 273d 9857 c2bc d8c6 76bd 47e0 293d
00000350: 4e4e 393d d5cc 313a 5425 41bd 0a24 033d
00000360: 89e1 d2bd d78e ba3c e255 13bd 9381 ccbc
00000370: 2b57 7dbc df63 2fbd 0857 303d 80e7 b5bd
00000380: 49d4 b63b 182c 1ebd dc14 993b 27ab fbbc
00000390: 9df4 94bd d5ab cabd f64d 7fbc c734 e7bc
000003a0: 2d9d c0bb 312f 9ebd f513 97bc 12f7 84bd
000003b0: cb4b 64bd 8a0e e9bc 77e7 68bd 6cea 0bbd
000003c0: 29be 19bd 375c 3ebd 8811 02be c383 af3d
000003d0: 0a9a a5bd ca64 663d ca94 213d 14c6 2c3d
000003e0: 414d 2d3d 00c2 cabd f5fd d8bc 2caf a1bc
000003f0: 6a22 3abd 9ee3 c3bd 26dd 0abd 4bed 21bd
-0.024535595 -0.072128534 -0.015014499 0.026036143 -0.09134436 0.07494298 0.05474156 0.0038993913
-0.046466608 -0.035273343 -0.08779132 -0.057252657 -0.124308415 -0.020111937 0.060226656 0.050499246
-0.045951016 -0.055662133 0.05055753 0.035056226 -0.04919183 0.060207866 -0.06496043 -0.028709484
-0.036137976 -0.11502405 0.025728015 -0.05042403 0.00084574794 -0.06579521 -0.024877954 0.07317068
0.016330255 -0.01047243 -0.035610154 -0.10994412 -0.08488904 -0.016672222 0.06368496 -0.036789015
-0.03429478 -0.033791482 -0.0155160315 -0.04226615 -0.07831618 0.061279546 0.03448306 -0.06588562
-0.09719796 -0.051049296 -0.059802122 -0.026429245 0.00053151365 0.027086426 0.07905387 0.0010217518
-0.10345423 -0.11691133 -0.07328776 0.001758744 -0.05736738 -0.106120564 0.011660763 -0.035506383
-0.07227753 -0.053929925 -0.14274374 0.008541524 -0.048993386 -0.0322771 0.016927809 -0.02500267
-0.016738085 -0.048313286 0.006220218 0.028367722 -0.0047689504 -0.14627393 0.04065198 0.010093216
-0.03653163 -0.06416849 -0.020748356 -0.089037165 -0.046046425 -0.02377888 -0.018196458 -0.093878984
-0.080506116 -0.009915008 -0.052957892 0.05699778 -0.05026677 -0.026260408 -0.0715864 -0.06567798
-0.022490565 -4.4135246e-05 -0.058885004 -0.049584523 0.029366689 0.045747478 -0.03258762 0.041554205
-0.009833278 -0.02640141 -0.11837434 -0.054012895 0.009888724 0.07902151 0.045691896 -0.046156112
-0.098059095 0.044293333 -0.08701601 -0.04733499 -0.17669065 0.0010368393 -0.003259182 -0.09215123
-0.11307148 -0.07500228 -0.059482757 -0.005451186 -0.05946811 -0.005559781 -0.020419452 -0.0123634
0.082525246 -0.024951423 -0.011117038 -0.09964735 0.00292352 -0.013006958 0.037193067 -0.06419903
-0.021534143 -0.05719763 -0.028313808 -0.08226728 -0.16737914 -0.019803347 0.040389568 0.072071515
-0.09079172 -0.085220836 0.043110333 0.033744387 -0.0043384917 -0.09010748 -0.052780226 0.0067659845
-0.08088285 0.026858099 -0.06511109 -0.023662051 0.022201374 0.04175728 -0.057097342 0.054437533
0.05136229 -0.009131006 -0.052853964 -0.082303934 -0.035518114 0.025447113 -0.067535974 0.017442696
0.025018131 -0.01087543 -0.016244125 -0.045523897 0.07967443 -0.012807857 0.051444307 -0.06385779
-0.06863356 -0.02474681 -0.07122586 -0.015733665 0.032140564 -0.022310983 -0.007013655 0.014295146
-0.040064096 0.010833808 -0.08257393 0.03273636 -0.02922173 -0.0483096 -0.084589176 -0.033038832
-0.012304956 -0.07120534 -0.032697618 -0.05683052 0.014894982 -0.086774476 -0.00043214974 0.020356894
-0.06820466 -0.050693184 -0.090622164 -0.09124488 -0.15637802 -0.041020773 -0.09927741 -0.06203253
0.040859953 -0.023723409 -0.060248226 0.041473653 0.045240693 0.00067825365 -0.04715474 0.03201679
-0.10296924 0.02277319 -0.035970576 -0.02496413 -0.015462677 -0.042819854 0.04305175 -0.08882046
0.0055795056 -0.03861627 0.004671676 -0.03072126 -0.07273219 -0.098960556 -0.015582552 -0.028223408
-0.005878112 -0.07723845 -0.018442133 -0.064924374 -0.055736344 -0.028449316 -0.056861367 -0.03415911
-0.037534866 -0.04647466 -0.12702 0.085700534 -0.08086021 0.056248464 0.039448537 0.04218109
0.042310003 -0.09900284 -0.026488284 -0.019736849 -0.045442976 -0.09564899 -0.03390231 -0.03953294

net.2.bias f4 [256]
00000000: f63f 87bd f90a 3bbd 4a53 cd3d f2d7 e0bc
00000010: a3d4 f0bc 1d64 5b3c 42a6 8bbd e7a2 0cbc
00000020: f8e5 a6bd 6130 91bd 9c5e 1c3d d528 553d
00000030: 6b48 23bd b180 c33d df08 60bd 7656 b0bd
00000040: d638 a5bd 2349 27be 936a b0bc 2c90 343d
00000050: be10 cebc 722f 933c 9436 87bb 5399 b6bd
00000060: 9d24 803d 84ec ab3d a513 543d e0cc ab3d
00000070: 21f5 bfbc 79f9 fc3b c5d0 0cbd c892 99bd
00000080: 0ffb 913d fe45 973d e0ef f3bd 12cf fcbd
00000090: a9a6 29bd 74e7 01bd 13a8 7d3d 58cc e9bd
000000a0: d0ce 91bc 283d 29bd 8685 d23d a66e 55bd
000000b0: bbe5 88bd e570 47bd 36cc 98bd 5873 273d
000000c0: d309 533c 4501 dcb9 e48e 033e 4a75 463c
000000d0: 8e63 5ebd d018 f43d cedc a7bd 075b 13be
000000e0: c5a1 d73d 5008 d1bd 692c 78bd 900e 843d
000000f0: d854 153d 1919 0bbc 3679 f3bd b130 c5bd
00000100: 2c35 aa3d ea43 8c3c a613 8b3c ebee 99bd
00000110: fb69 78bc 9a0b 9ebd e1cf 1ebd 982c 6d3d
00000120: bc40 66bb d737 9bbd 7695 22bd 5091 aebd
00000130: b949 e8ba c695 53bb 7420 b83d c497 89bc
00000140: abbb dfbd a40b 23bd 5ff8 ff3c bdd9 193c
00000150: bf9a bb3d 98ed 123d e242 a83d b48b 89bd
00000160: bbed cf3d 31b2 8bbd 8803 65bd f148 36bd
00000170: 2352 1cbe 3afd 37bd b9cc 2ebd cda8 143d
00000180: 93f1 9cbc 1bb9 b03d a6cc b43d e122 ab3c
00000190: bf52 2e3d fd59 f1bd 8f1c a8bd 7eac 5cbd
000001a0: d587 71bd a724 583c 35a8 3f3d 6ace f5ba
000001b0: 51ef 9d3d fe64 0a3d ad4b 39bd e902 0bba
000001c0: 6360 113d 2796 b53d 7525 84bd 4d51 b6bd
000001d0: 5b05 d63d 47b8 c2bb 9d4c ecbb 1623 4dbd
000001e0: f624 71bd ae53 2bbd 1698 3e3d fb90 f0bc
000001f0: 5b43 8d3b 6a31 ddbd 083f 1bbe 6176 51bc
00000200: d5f6 953d 0149 5abd 452e bcbc 07d6 1abd
00000210: 1ddb a5bd 45e5 9cbd 6116 aabb 86d4 113e
00000220: b5c3 163e 507c 693d 8289 7dbd 05d0 42bd
00000230: 7a06 0abd 5891 eebc 7e1c e93d 2bbe a9bd
00000240: f212 123e 2f25 86bd 9455 dfbc 3a19 82bd
00000250: f3d5 a1bd 9e39 f4bb 6b1e 823d c37c 4b3c
00000260: cc49 74bd 0030 a73b 7d6a 0a3d 3d2f 1bbd
00000270: 6fce 55bc a1ad 23bc 4cc8 f13d 02cd 9e3d
00000280: fc25 b83a 5d56 913c e5ad 8b3d c428 d43a
00000290: 2f73 10bc 5cf5 443d 97c0 39bd 1da8 59bc
000002a0: dfde 983c 93aa 01be b0f4 f03d dec8 fbbc
000002b0: a52a 6dbd 8415 87bb c6ba a53d f77d fa3c
000002c0: 6a1c 313e d52d 2a3d 79d4 923d 1d99 73bd
000002d0: 703c cb3c 221a a5bd 741a bd3c 4116 163d
000002e0: 1e95 613d 6da7 9abd 7ee6 3dbd f8a9 453d
000002f0: 0344 e33d a011 e1bb cf6c 99bc f47b b1bd
00000300: 32e7 743d 9990 993c b3b0 873b 7332 d6bc
00000310: cea9 d83d f856 133d 7f45 2dbc 5f25 e73d
00000320: 1b00 ce3c cdc6 88bd a51a f5bc 1704 a3bd
00000330: c85f a3bc f872 ebbb df86 63bd 1f35 183d
00000340: 3866 bb3c 16d1 ccbd f668 1b3d 0c7d dcbc
00000350: df2d 313b 1e48 18bd 16f4 1abd f99d 753c
00000360: 218c 80bc 0bf0 273d 6f8f 8dbd e61e 4fbb
00000370: b2b7 df38 d30e aa3d 3c2a 81bd 5a37 51bc
00000380: 31fb af3c bccc 27bd ed3d 74bd 41ca e2bd
00000390: 1a93 dbbc 3d6f b0bc 39c2 34bd e86f aebb
000003a0: fc12 fd3c 02da 363d fe59 6dbd a095 8a3c
000003b0: cbe5 13bd c563 dd3c 6a7c cabd 3dcf 97bd
000003c0: 2a66 783b 6f8c 20bd 6ce5 70bd c229 92bd
000003d0: 0202 3c3d 687e 1fbd 63d0 90bd bc05 6b3b
000003e0: 7cbb d83c 1b30 98bc 5b88 13bd aa8e af3d
000003f0: 2e86 acbd aef6 f0bd 8547 b4bb 3c47 66ba
-0.066039965 -0.04566476 0.10025652 -0.02744672 -0.029398268 0.013390568 -0.068188205 -0.008583761
-0.08149332 -0.07089306 0.038176164 0.052040894 -0.039863985 0.0954603 -0.05469596 -0.08610241
-0.08067481 -0.16336493 -0.021535194 0.044082806 -0.025154468 0.01796696 -0.0041263793 -0.08915963
0.062569834 0.08394721 0.051776547 0.08388686 -0.023432316 0.007720169 -0.034378786 -0.074986994
0.07127964 0.07386397 -0.11910987 -0.12344183 -0.041418705 -0.03171487 0.061927866 -0.114159286
-0.017798811 -0.04131809 0.10279374 -0.052107476 -0.066844426 -0.04869165 -0.07460825 0.040881485
0.01288076 -0.00041962616 0.12847477 0.012112925 -0.05429416 0.11918795 -0.08196412 -0.14390193
0.10528902 -0.102066636 -0.060589228 0.0644809 0.036457866 -0.0084898705 -0.118883535 -0.09628428
0.08310923 0.017122228 0.016977143 -0.07516273 -0.015161986 -0.077170566 -0.038772468 0.057903856
-0.00351338 -0.0757901 -0.03969332 -0.0852381 -0.0017722166 -0.0032285317 0.08990565 -0.016796
-0.10924467 -0.039806023 0.031246362 0.009390292 0.09160375 0.03587112 0.08215882 -0.067160994
0.10152765 -0.06821097 -0.05591157 -0.044503156 -0.15265708 -0.04491923 -0.042675707 0.036293793
-0.01915816 0.08629056 0.08828096 0.020890655 0.04255938 -0.11784742 -0.08208572 -0.05387544
-0.05896743 0.013192332 0.046791274 -0.0018753533 0.077116616 0.03378772 -0.045238186 -0.0005302863
0.035492312 0.0886653 -0.06452457 -0.08902226 0.1045024 -0.0059423777 -0.0072112815 -0.05008229
-0.05887314 -0.04182785 0.04653176 -0.029366007 0.004311008 -0.108004406 -0.15160763 -0.012784571
0.0732247 -0.05329228 -0.022971282 -0.03780177 -0.08098433 -0.07660917 -0.005190656 0.14241228
0.14723094 0.05700332 -0.061898716 -0.047561664 -0.033697583 -0.02912204 0.113823876 -0.08288225
0.1426504 -0.06550061 -0.027262487 -0.06352468 -0.07902136 -0.0074531576 0.06353458 0.012419882
-0.05964069 0.0051021576 0.03379296 -0.037886847 -0.013049706 -0.009990127 0.11805782 0.07753946
0.0014049406 0.017741377 0.06820277 0.0016186466 -0.008816524 0.048085555 -0.045349684 -0.01328471
0.01866096 -0.12662725 0.117654204 -0.03073543 -0.057901997 -0.004122438 0.08092265 0.030577643
0.17295995 0.041547615 0.07169432 -0.059472192 0.024809092 -0.08061625 0.023083903 0.036642317
0.05507385 -0.07551465 -0.046362393 0.048257798 0.110969566 -0.006868556 -0.018728642 -0.0866622
0.059790798 0.018745707 0.0041409372 -0.026147103 0.10579263 0.03597161 -0.010575651 0.11286425
0.025146535 -0.06678543 -0.029919932 -0.079597645 -0.019943133 -0.007185336 -0.055548545 0.037160035
0.02287589 -0.100008175 0.037941895 -0.026915096 0.0027035398 -0.03717815 -0.037830435 0.014991277
-0.015691819 0.041000407 -0.069121234 -0.003160411 0.000106676845 0.08303609 -0.06306884 -0.0127695445
0.021482082 -0.040966734 -0.05962937 -0.11073733 -0.026803542 -0.021537418 -0.044130538 -0.005323399
0.030892842 0.044641502 -0.05794715 0.01691705 -0.03610782 0.027025113 -0.09887011 -0.074125744
0.0037902691 -0.039196428 -0.058812544 -0.07136871 0.045900352 -0.03893891 -0.070709966 0.0035861572
0.026456587 -0.018577626 -0.03601871 0.08572133 -0.0842403 -0.117658004 -0.00550169 -0.00087844185

mean.weight f4 [6, 256]
00000000: c314 c3bd 689c 3bbc 5570 a43d af42 5fbd
00000010: 5323 c13d a3a6 5d3b 50a6 eebd 030f 18bc
00000020: f7fb b13c 0af0 f4bb 5177 d2bc 305a debd
00000030: 0664 043e 98f0 933c 51af 08bc fd57 99bd
00000040: 2712 b6bd 186f 19bd 66a1 1c3d dc72 c7bd
00000050: c230 0abd 101e adbc bb3d c0bd 31eb 0c3c
00000060: f2da b9bc daa2 e0bd f28d dabd 56b4 133d
00000070: c07e 873d 50be 81bc c2d7 e53c 8838 33b9
00000080: 2654 0e3d d9b9 85bd f764 a0bc f66a 103c
00000090: ee26 df3d 5ec8 f4bb be59 db3d d314 173e
000000a0: 9e87 a53d 05e4 58be 19ff b2bc 8f07 113d
000000b0: c687 babc 73f6 1bbe 6277 bbbc 6545 b33c
000000c0: 4e74 1e3d f65d 663c 062e f3bc ec89 d7bc
000000d0: 9620 b4bc 14c2 b7bd e9e1 b23d 9432 71bc
000000e0: 7f06 81ba 3a03 86bd 7492 e8bb 05b9 3bbd
000000f0: bb58 093d 0878 943c c37d 5d3d 8f8a c13d
00000100: 97a2 c43b 4952 14bd 5f17 513c 7ada 4b3c
00000110: 5149 ce3b 2ad2 0c3e b68a 2cbe 1e3c 893a
00000120: 92bf c03b 0f8d 733d 8601 9cbc 40ad ce3b
00000130: 5711 1fbd 0284 e93d 39c4 a4bd 86e5 a6bc
00000140: 9dc0 0e3d 5bc8 d03c 03bf 85bd caec cabd
00000150: acae adbd d037 ecbc b95d 9ebd eb0e c63b
00000160: 264a a23c f35b 493d 2f02 24bd 0b1c 7d3c
00000170: dadf 793d 7943 47bd 12fc 893d 4de4 d33a
00000180: b8cd 74bd d554 bfbc 63c7 e5bd 3c72 0c3d
00000190: 9568 acbc aed5 493d 7d43 54bd 185d 2bbd
000001a0: 943e 40bd ec88 b0bd 991a a6bb 4c47 c83b
000001b0: 6954 2c3d 9446 81bc 166d 393d 96ce 29bc
000001c0: 779e b1bd 90d5 3c3d 8704 583d 9138 0abd
000001d0: d34c 543d 9165 2cbd 177c 673d 041a c7bc
000001e0: 018b a43d 016a 43bd 1f54 16bd 0a19 463d
000001f0: 0982 5abd e5bc a6bd 03f3 163d 9be4 2c3d
00000200: 6df6 adbb 712d a43c 5300 87bd 5f3a fabc
00000210: 19c8 8ebd d177 6cbd a88a 823d 32df 193d
00000220: c191 05bd 43dc 393d 658a 85bd 5709 84bd
00000230: fc79 8cbd a3c5 57bb 7060 e3bc 8da0 bd3d
00000240: be45 81bd c039 3e3d ae5d 423d 29f2 aabd
00000250: 83a5 66bd ea38 b43d a0e7 8ebd eae4 64bd
00000260: 23ce 34bd e554 5b3d 5f25 983c 0bd9 373d
00000270: 760f 47bd 3796 1fbc d8d2 ec3c c67a 81bd
00000280: f9f3 a23d 5f5f 873c 7ca0 fc3c 75e0 e3bc
00000290: 3a56 ccbd e5fb 403d adc4 303d 653a 7d3d
000002a0: eb25 893d 5da5 303d 1e7d 54bd afd8 e1bc
000002b0: ed51 1dbd ef53 b03c 5214 263c 4313 c23c
000002c0: 5e63 8cbd 5b2a 00bc 5c1d ff3d f066 2fbd
000002d0: 8b26 05be 3a69 96bd 2771 07bd 5148 85bd
000002e0: 1145 ae3d e864 913d efb2 54bc 335e c63c
000002f0: d2df 52bc be0a 2abd 9b1e 1bbc 9a92 d53c
00000300: be4c ce3d e40a 013e f0e3 b1bd 449f b33d
00000310: 9c51 bcbc 4e9c b6bc 048d 123d 970f bc3d
00000320: 3b8e 2bbc 2704 97bd 6f32 fbbc 208d cc3d
00000330: 38c4 38bd b0e2 d5bc 2e56 89bd 7035 6c3c
00000340: 9358 e13c 4fdb 04bd 6cec 623d 6326 0e3d
00000350: be55 153e 9c0b 583d 4aef 203c 79cb 933b
00000360: 664e 28be 413a 253c fd48 3d3d 1e73 703d
00000370: 5a67 ef3c 1fcf 933c 42f2 0ebd bcb6 a23d
00000380: 9751 263d 0a26 febc 6252 3c3d 83f8 4c3b
00000390: 739b cb3c 1d82 be3c 16c1 5f3d dc83 c8bb
000003a0: 5dee 2f3d f6b6 03bb 8eaa 99bd 48a0 213e
000003b0: 9e93 1fbd 1ce7 17bd 3765 d9bd b555 a23d
000003c0: 1cb6 14be 71c4 5b3d c656 23bb e3c8 0bbc
000003d0: d5cd 90bd a521 92bc 62b2 753c 5c00 ad3c
000003e0: 4d30 7ebd a5f0 953d 28d8 d2bc fa6c 943d
000003f0: 7c39 c33c 1ba0 1cbd d051 7f3d 984e 98bd
-0.09525444 -0.011450864 0.08029238 -0.054506954 0.09430566 0.0033821247 -0.11652815 -0.009280923
0.021726592 -0.007474904 -0.02569166 -0.10857046 0.12928781 0.01805906 -0.00834258 -0.074874856
-0.08890181 -0.037459463 0.03823986 -0.097387046 -0.033737905 -0.021132499 -0.09386774 0.008600996
-0.02268741 -0.109685615 -0.10671605 0.036060654 0.066159725 -0.015837818 0.028056983 -0.0001709183
0.03474822 -0.06529588 -0.019579394 0.008814564 0.10896097 -0.0074701747 0.10710476 0.14754038
0.080825076 -0.21180733 -0.021850156 0.0354076 -0.02276982 -0.15230732 -0.022884075 0.021883676
0.038685136 0.014060488 -0.029685032 -0.026310883 -0.021988194 -0.08972564 0.08734495 -0.014721531
-0.0009843855 -0.06543584 -0.0070975367 -0.045830745 0.033531886 0.018123642 0.054075014 0.09450256
0.0060008275 -0.036211286 0.01276192 0.012442226 0.006295361 0.13752046 -0.16849789 0.0010470187
0.005882212 0.059460696 -0.019043695 0.006307274 -0.038834896 0.114021316 -0.08045239 -0.020373117
0.03485166 0.025486162 -0.06530573 -0.09908445 -0.08480582 -0.028835207 -0.0773272 0.006044259
0.019810747 0.049159955 -0.040041145 0.0154485805 0.061004497 -0.04864833 0.06737532 0.0016166061
-0.0597665 -0.02335588 -0.112196706 0.03428863 -0.021045962 0.049276046 -0.051822174 -0.041836828
-0.04693468 -0.08619866 -0.0050690887 0.006112015 0.042072687 -0.015780725 0.045270048 -0.010364195
-0.08672803 0.046102107 0.052738693 -0.033745352 0.051831078 -0.04208905 0.056514826 -0.024304397
0.080343254 -0.047708515 -0.036701318 0.048363723 -0.053346667 -0.081414975 0.036852848 0.042210203
-0.0053089173 0.0200412 -0.06591859 -0.030545412 -0.06971759 -0.057731453 0.06374103 0.03756637
-0.032609705 0.045376074 -0.06520537 -0.06447094 -0.06859204 -0.0032924197 -0.027755946 0.09259138
-0.063121304 0.046441793 0.04745262 -0.0834697 -0.056310188 0.08799918 -0.06977773 -0.055882372
-0.0441419 0.05354776 0.018572507 0.044884723 -0.04859873 -0.009740404 0.028909132 -0.06322245
0.0795669 0.016524969 0.030838244 -0.02781699 -0.09977384 0.047115225 0.043156315 0.061823267
0.066966854 0.043126453 -0.051877134 -0.027569143 -0.03840821 0.021524398 0.010136681 0.023690825
-0.0685489 -0.007822598 0.12456772 -0.04282278 -0.13002984 -0.07344289 -0.033066895 -0.06507934
0.08509267 0.070993245 -0.012982114 0.02421484 -0.012870746 -0.04151415 -0.009467746 0.026070882
0.10073231 0.1260181 -0.08686054 0.08770612 -0.022988133 -0.022291329 0.035779014 0.09182661
-0.010470922 -0.07373839 -0.030663697 0.09987855 -0.045109004 -0.02610907 -0.067058906 0.014417037
0.027508056 -0.03243571 0.05540125 0.034704577 0.1458349 0.052745447 0.009822676 0.00451034
-0.16436157 0.01008469 0.046212185 0.058703534 0.029224087 0.018043099 -0.034899004 0.0794501
0.040605154 -0.031023998 0.045977004 0.0031276054 0.024854397 0.023255402 0.0546275 -0.0061192345
0.04295193 -0.0020098067 -0.07503234 0.15783799 -0.038959138 -0.037085637 -0.10615008 0.079265036
-0.14522594 0.053654138 -0.0024923547 -0.008531782 -0.07070509 -0.017838309 0.014996143 0.021118335
-0.062057782 0.0732129 -0.025737837 0.07247348 0.023831122 -0.038238626 0.06233388 -0.074368656

mean.bias f4 [6]
00000000: 1ec6 60bd ef0c 08bd 3860 73b9 6cfa 393e
00000010: f567 c03d 6f8c 2c38
-0.05487644 -0.03321546 -0.0002321013 0.18161935 0.09394828 4.1138785e-05

exp_avg f4 [6]
00000000: 0c1a 23b9 3f3c b1b9 79e1 58ba f6a8 2339
00000010: 710c 663b 1237 163b
-0.00015554595 -0.00033804958 -0.0008273344 0.00015607834 0.003510263 0.0022921008

exp_avg_sq f4 [6]
00000000: 0e66 ea37 4779 ee37 848b e637 aef6 f237
00000010: d7f1 fe37 a81c fa37
2.7942497e-05 2.8428285e-05 2.7483104e-05 2.8963517e-05 3.0391775e-05 2.9815666e-05

exp_avg f4 [256, 17]
00000000: f1ac 3138 bbd3 11b8 abd2 1c39 9e2d 5fb8
00000010: ff15 8e37 758d 1f38 46c6 3db8 3d4a 78b8
00000020: f645 b539 2223 15b6 efcc bf38 6d32 b63a
00000030: 17a0 e6b9 a571 133a 47f5 023b 628e 3cbb
00000040: e9de b939 0983 5eb6 cdde 6db6 ece3 5338
00000050: bd99 79b5 2a05 4c37 b9bb 7838 1d22 50b8
00000060: 15ff 46b7 6a80 d838 e669 af38 31cb 0e39
00000070: 0338 fbb9 0c22 0fb7 8b20 f539 81a3 2f3a
00000080: 03c7 b9ba 6627 673a a783 eeb6 456f d837
00000090: 6be2 04b8 3fcb b537 0c94 21b8 f668 7737
000000a0: 5971 9fb7 aaed 0138 6282 1039 df1e 0939
000000b0: 605f 3a38 6623 a7b9 cc9d 74ba adcc 043a
000000c0: 0c7d acb9 7cf5 aa3a 9508 3b38 c322 c636
000000d0: 9874 c037 d162 c3b7 c43f 3eb7 bcf0 bc37
000000e0: e8a7 9eb7 60b1 aab7 0524 f236 afb4 78b8
000000f0: 0edc c5b8 74d9 19b9 6f05 333a 7b29 37b9
00000100: bc44 abb9 4905 7b3a 4626 aaba d528 baba
00000110: 6aca fa35 84be 7e37 01b9 76b8 7beb 48b7
00000120: bf64 90b8 20a6 a138 0fd1 5338 9b44 bd38
00000130: 5fea cc39 bed9 86b7 a3fc 41b8 8897 bcba
00000140: 2904 55ba f73c 44b9 1273 b3ba ee46 0c3b
00000150: 2424 8c3a c791 8f36 f977 b7b7 3deb 2a37
00000160: c249 f8b6 f392 73b7 fdfe 3eb7 df32 30b8
00000170: a619 cfb6 8e67 10b9 20e3 b938 25ed 98b7
00000180: 8cd0 c0b9 6901 25b9 34c5 fc39 3a36 d7b9
00000190: 7817 4db9 ee13 99b7 f1b1 adb7 cd84 8c38
000001a0: 2dab a6b8 c103 0539 e473 21b8 095d 8737
000001b0: ced4 21b9 3e8e bfb6 47fd 33ba 20ab b7b8
000001c0: 2a56 253a 868e 3ebb 9577 8c3a f71f 07bb
000001d0: 4208 7aba f06d a8ba 6f46 6e3a fb04 1cb7
000001e0: 3cc4 9e37 f92c 35b6 dc06 58b6 54bd 0fb8
000001f0: bbc6 93b4 49dc e336 d8c9 b8b7 c501 69b8
00000200: d98b 30b9 6b2f 5539 4d6d 5eb9 a509 043a
00000210: 8469 79ba 6054 ac39 f500 51b9 1898 0dba
00000220: c6bd 2836 a751 37b7 7a7b 77b8 813a 5337
00000230: b7b1 36b7 9736 81b8 d8a5 b637 2012 0138
00000240: a4f9 d136 7d45 6838 cd81 c337 ee47 5c39
00000250: 27fa 3cba 45a4 853a ed01 a8b9 f4b3 d63a
00000260: 26c1 4cb9 b5ee f6b7 f855 7e37 724c 1ab7
00000270: e9af b9b7 3d0a 2f38 ae38 da37 fd8f bd38
00000280: 93f4 3435 0996 8739 b851 3738 1e59 8d34
00000290: 485d 353a 78f2 a2b8 afd4 ee39 b222 4cba
000002a0: be87 7b3a b150 25b9 bcd5 3337 5810 42b8
000002b0: 9fd2 5a38 8767 11b7 87d6 b736 4be9 1338
000002c0: 2d5f 5138 b359 a637 b900 e238 173c 0839
000002d0: 071e d3b9 f82b 363a 7a2d 0239 575d e239
000002e0: f28d 9eb9 197f 26b9 3468 433a bc14 98b5
000002f0: 7417 0db8 9e1a 6bb7 b3d9 e037 3b28 0137
00000300: e401 16b7 45ff 20b8 758b c837 ee0d 37b9
00000310: 71da 9438 8246 4137 d251 b2b9 6769 bcb9
00000320: 663d 9239 10be 8836 1ccd 42b9 aa14 0739
00000330: 50a9 09b5 4ccf a0b6 df2e 5fb8 1f2e 8d37
00000340: 1dac 38b8 4d3c 7ab8 2ad3 8f37 90aa df37
00000350: 2e89 51b9 8d1e 3338 cfa6 50b9 6842 a639
00000360: 4ae7 8fba c20a 5937 7fa8 fa38 0c5b ce3a
00000370: c9f5 6eba ed47 c436 ff06 76b8 55cc 7d36
00000380: 8aa5 9d38 dc24 cc37 fbfe ce37 9fc9 9db8
00000390: 1e26 9137 34f3 8fb9 19a8 9839 1356 91b8
000003a0: 66d8 a3ba e5a1 3ab9 1b01 bdb9 70f4 0aba
000003b0: 5ba9 123a 6cce 393a f6b3 bd36 1967 c3b8
000003c0: d341 15b8 ffdc bb38 a13d 7438 cd3c ebb8
000003d0: 5ed8 22b8 759b c537 e427 0bba 150c 4639
000003e0: 8738 5e39 4198 e8b7 e797 86ba 3e6c c239
000003f0: 6260 8bba ab67 e239 9a26 1139 675c 52b6
4.2361153e-05 -3.4767883e-05 0.00014955799 -5.3209827e-05 1.6937962e-05 3.8040296e-05 -4.5245768e-05 -5.9196947e-05
0.00034575135 -2.222318e-06 9.1457616e-05 0.0013900526 -0.00043988295 0.00056245393 0.0019982622 -0.002877139
0.0003545203 -3.315685e-06 -3.544544e-06 5.051859e-05 -9.2983447e-07 1.216055e-05 5.9302638e-05 -4.9622835e-05
-1.1861111e-05 0.000103236016 8.3643754e-05 0.0001361787 -0.00047916183 -8.531391e-06 0.00046754288 0.0006700084
-0.001417369 0.00088178215 -7.108279e-06 2.580102e-05 -3.168212e-05 2.1671525e-05 -3.852327e-05 1.4746785e-05
-1.9007059e-05 3.097734e-05 0.00013781482 0.00013076839 4.443468e-05 -0.00031879096 -0.0009331375 0.00050658995
-0.00032899564 0.0013043131 4.4592267e-05 5.9049066e-06 2.2942477e-05 -2.3291826e-05 -1.1339729e-05 2.2523447e-05
-1.8913255e-05 -2.0348176e-05 7.2163552e-06 -5.9296082e-05 -9.4346804e-05 -0.00014672225 0.0006829118 -0.00017467693
-0.00032666873 0.00095756777 -0.0012981377 -0.0014202843 1.8685362e-06 1.5183938e-05 -5.882327e-05 -1.1975756e-05
-6.8852205e-05 7.7080214e-05 5.050102e-05 9.025001e-05 0.00039084532 -1.6075439e-05 -4.6250072e-05 -0.0014388422
-0.0008125925 -0.00018714728 -0.001369091 0.0021404582 0.0010691923 4.278703e-06 -2.1871167e-05 1.018756e-05
-7.3995625e-06 -1.4518143e-05 -1.1384252e-05 -4.2009047e-05 -6.1720666e-06 -0.00013771487 8.863793e-05 -1.8230241e-05
-0.00036776473 -0.00015736152 0.00048212113 -0.00041048398 -0.00019559066 -1.8248302e-05 -2.0706068e-05 6.700456e-05
-7.947381e-05 0.00012685267 -3.8493323e-05 1.6136577e-05 -0.00015433432 -5.7088027e-06 -0.00068660494 -8.7579945e-05
0.000630709 -0.002907665 0.001071679 -0.0020618418 -0.00095379737 -0.0012850147 0.0009089475 -9.299484e-06
1.8926447e-05 -2.699728e-06 -3.21905e-06 -3.4270182e-05 -2.752548e-07 6.7907717e-06 -2.20285e-05 -5.5553177e-05
-0.00016836765 0.00020330928 -0.00021212288 0.00050368375 -0.0009514319 0.0003286926 -0.0001993215 -0.0005401387
2.5144413e-06 -1.0926661e-05 -5.9004386e-05 1.2590202e-05 -1.0889423e-05 -6.1613675e-05 2.1773318e-05 3.0772877e-05
6.2577474e-06 5.5377826e-05 2.3306255e-05 0.00021007631 -0.00072089065 0.0010196051 -0.00032044892 0.0016380535
-0.0001952691 -2.9436642e-05 1.5159596e-05 -9.196914e-06 -2.2135633e-05 4.1732786e-05 2.6014019e-05 9.039042e-05
6.741113e-07 0.0002586099 4.3706706e-05 2.6328138e-07 0.0006918502 -7.769925e-05 0.0004555336 -0.00077871524
0.00095951173 -0.00015765686 1.0718995e-05 -4.6268426e-05 5.2171406e-05 -8.666778e-06 5.4787993e-06 3.5264802e-05
4.9918122e-05 1.9830512e-05 0.000107766544 0.00012992356 -0.00040267428 0.0006949301 0.00012414707 0.00043175623
-0.00030241866 -0.00015878341 0.0007454187 -1.1330917e-06 -3.3638862e-05 -1.4013289e-05 2.6804255e-05 7.698366e-06
-8.941137e-06 -3.838471e-05 2.3906798e-05 -0.00017457429 7.097878e-05 1.1520113e-05 -0.00034011767 -0.00035936685
0.00027893035 4.075242e-06 -0.00018577691 0.00012882301 -5.128286e-07 -4.792504e-06 -5.3210995e-05 1.6829987e-05
-4.402931e-05 -5.9660804e-05 1.714526e-05 2.6663096e-05 -0.00019982897 4.270538e-05 -0.00019898567 0.00031711464
-0.0010978964 1.2936713e-05 0.00011952314 0.0015743687 -0.00091156043 5.8496285e-06 -5.8657486e-05 3.7818875e-06
7.5171774e-05 2.4335859e-05 2.4675848e-05 -7.523898e-05 1.7303097e-05 -0.00027456286 0.00029116942 -6.9301714e-05
-0.0012500405 -0.00017798653 -0.00036049713 -0.0005300706 0.0005594694 0.0007087949 5.653589e-06 -9.317528e-05
-3.5585672e-05 8.9580186e-05 5.823153e-05 -0.00011216998 -3.8825317e-05 2.355662e-05 -0.00053083734 0.00018887252
0.00021192628 -2.7727454e-05 -0.0010268659 0.0003708321 -0.0010633583 0.00043183318 0.00013842658 -3.1346224e-06

exp_avg_sq f4 [256, 17]
00000000: bad4 3432 bf25 4134 cd8f e833 631e b133
00000010: 3af8 7133 8f38 9034 ef4d de33 58f0 9133
00000020: 8ee5 cb36 e203 2c35 3a1e 3a36 1ece b238
00000030: 0311 a937 4822 4d38 358f 1c38 19cc 8038
00000040: 11f8 7438 df0f 2a31 dc67 0733 79f2 2833
00000050: 2bc4 0133 173a 9f32 8025 8533 44e8 5d33
00000060: b347 ba32 4c28 2836 f5e9 7134 4c40 3c35
00000070: 5ebb a837 45f1 fa36 5dbb 4537 f365 3f37
00000080: 9caf 9337 9eaf 8337 d821 6c31 d621 2133
00000090: f16c 5833 f4fa 0a33 c901 fe32 b20f bb33
000000a0: 5553 8333 9e2a 2b33 ddda 2f36 9de4 ab34
000000b0: 03e9 9f35 3158 0f38 6955 2c37 5f34 7c37
000000c0: 61be a337 039b 0938 ca1c 9437 27eb 5231
000000d0: 6e01 3633 d09c 4333 0de3 2933 bf4f b532
000000e0: 9756 9b33 9a6e 9e33 75e6 ac32 04cf 6736
000000f0: 0995 5834 f6f8 6a35 01bd e037 a135 2137
00000100: baf9 9537 cac1 5737 a3ff 7837 2baf c937
00000110: dbe8 1631 1fc9 cb32 3920 2533 685b 2f32
00000120: c1b9 c932 8217 0733 3507 7433 7818 3033
00000130: 5030 9835 5886 4134 7ee9 3f35 3fda b937
00000140: 7943 0f37 8e29 2037 06b7 8737 f4c3 0338
00000150: 60f6 3937 5dc0 4131 ad50 1933 aad3 9532
00000160: 60a6 7632 62f0 8232 993f 8e33 9e7d f032
00000170: b3d6 8c32 f725 b035 aedc 2b34 1d7f 3235
00000180: 146b d637 95f5 ac36 ea07 a537 e630 0f37
00000190: bef6 7337 4b8d 9d37 ec16 cf31 8a9f 8e33
000001a0: 1f8f a033 6fca 6a33 a026 0c33 4d7e 6e34
000001b0: d343 4333 7e3b f732 1fc0 8e36 c360 0535
000001c0: d1c9 c035 bc61 2438 441b 9937 b70a 0638
000001d0: 1410 8137 0f1f 1838 3457 0538 dfba 4531
000001e0: f025 2633 3e20 1433 51c9 0f33 ccec 8532
000001f0: 27cf 9333 1495 4433 bb0e 7f32 f5e5 3936
00000200: efa6 7c34 61b3 2035 1f7c 9a37 96b4 e036
00000210: 567f 4e37 91f1 3737 c1d4 3f37 7955 5a37
00000220: f13e 4531 1e55 fa32 7d37 e732 0957 8632
00000230: 1bf4 9032 bc2c 8b33 d046 8c32 5574 a132
00000240: 955b 9735 4fdc 2f34 0ed9 2235 5905 9c37
00000250: dece c536 fb1f 2137 77ab 0137 5397 7037
00000260: e3d1 8437 d8bf ab31 0018 8a33 c47a 9d33
00000270: e926 8f33 81be 0e33 2571 0a34 459b b533
00000280: a039 3f33 bb1b c236 69a9 0335 7d00 a135
00000290: bd0f 1e38 a542 3637 4a52 7f37 0bc2 e737
000002a0: 7eee ec37 e482 6837 d783 a331 8cb2 6833
000002b0: f0cd 4133 6935 e932 fcca c432 abbc 2134
000002c0: 55de e932 1716 d032 8740 2336 3e4c a034
000002d0: 2eac 9835 aa97 0938 ab34 3937 c487 a837
000002e0: 13a5 4537 6e5e f537 49de cc37 9b2b 5231
000002f0: df45 1a33 e9e8 c632 a123 1832 6424 9832
00000300: 1f73 9633 cc64 9032 956a b632 7940 6135
00000310: 07fc 3934 700a 2335 aba3 c337 849c c536
00000320: f5b9 5b37 65e9 0b37 b973 a537 f17e 7537
00000330: 9c05 9231 b339 4533 c1a9 b633 f1b5 0933
00000340: 9107 2033 75ce d333 3a65 9f33 58d3 5833
00000350: f3d7 1b36 a686 b234 adbb a035 111a de37
00000360: 824c 6837 6133 7737 862f b537 751b 3d38
00000370: 1327 ba37 5075 1531 d9ff 0c33 d18e dc32
00000380: a4c0 f932 9f38 6f32 0137 6333 8b19 5a33
00000390: 63ff 8732 a48e 3736 c21b 6334 1e48 1d35
000003a0: c7e4 9837 0c52 be36 a1d5 2c37 3357 5937
000003b0: 1ca4 4c37 22e6 8b37 74b8 0431 9f6b e332
000003c0: e255 c432 0e42 8932 74ce 4532 40b2 0033
000003d0: 758e 2933 ef26 af32 50da c935 503a 2234
000003e0: e9ad ea34 1132 6337 7b3c cf36 2eee e136
000003f0: 232f 3d37 319a 7437 12de 1437 3920 1931
1.0525747e-08 1.7988258e-07 1.0829499e-07 8.247732e-08 5.6337946e-08 2.6863242e-07 1.03518566e-07 6.795807e-08
6.076595e-06 6.4080643e-07 2.7733754e-06 8.526094e-05 2.0154292e-05 4.8907736e-05 3.732667e-05 6.141532e-05
5.8405163e-05 2.4747278e-09 3.1526596e-08 3.9336076e-08 3.0213567e-08 1.8536452e-08 6.200116e-08 5.1666817e-08
2.1685855e-08 2.5057407e-06 2.2529987e-07 7.012902e-07 2.011441e-05 7.478668e-06 1.1785739e-05 1.1408224e-05
1.760554e-05 1.5698195e-05 3.4361758e-09 3.7516507e-08 5.03905e-08 3.235887e-08 2.9570304e-08 8.710721e-08
6.115321e-08 3.98528e-08 2.6204427e-06 3.201757e-07 1.1914238e-06 3.417599e-05 1.0271885e-05 1.5032564e-05
1.9519766e-05 3.280771e-05 1.765638e-05 3.069269e-09 4.2376477e-08 4.5544596e-08 3.955488e-08 2.1107438e-08
7.2335006e-08 7.377567e-08 2.0128235e-08 3.4542181e-06 2.0170786e-07 8.753408e-07 2.6790893e-05 9.608834e-06
1.7878472e-05 1.2860119e-05 1.4841472e-05 2.4042636e-05 2.1960236e-09 2.372377e-08 3.8446363e-08 1.0207124e-08
2.348395e-08 3.1453517e-08 5.6817232e-08 4.1000447e-08 1.1338943e-06 1.80234e-07 7.149282e-07 2.2155347e-05
8.539174e-06 9.546418e-06 1.6178481e-05 3.141533e-05 1.1084223e-05 2.8194542e-09 3.5696463e-08 1.7442137e-08
1.4356914e-08 1.5243305e-08 6.6239586e-08 2.7996801e-08 1.6395779e-08 1.3124071e-06 1.6005899e-07 6.649514e-07
2.556065e-05 5.154589e-06 1.9673218e-05 8.534849e-06 1.4541378e-05 1.8781653e-05 6.027099e-09 6.64141e-08
7.476614e-08 5.4666483e-08 3.263142e-08 2.2211425e-07 4.546366e-08 2.8781638e-08 4.2542956e-06 4.968717e-07
1.4363851e-06 3.919167e-05 1.8251718e-05 3.195807e-05 1.5385485e-05 3.626855e-05 3.1790885e-05 2.8773497e-09
3.868439e-08 3.448826e-08 3.347788e-08 1.559092e-08 6.882902e-08 4.5770392e-08 1.4846303e-08 2.7701e-06
2.3530059e-07 5.9865675e-07 1.8416029e-05 6.696743e-06 1.23082045e-05 1.0963894e-05 1.1434023e-05 1.3013713e-05
2.870305e-09 2.9142537e-08 2.6917172e-08 1.5639232e-08 1.6874813e-08 6.480829e-08 1.6330347e-08 1.8795768e-08
1.1277031e-06 1.6378293e-07 6.066556e-07 1.859914e-05 5.89514e-06 9.603794e-06 7.728921e-06 1.4340348e-05
1.5833362e-05 4.998565e-09 6.430491e-08 7.333213e-08 6.666034e-08 3.3235214e-08 1.2893413e-07 8.456713e-08
4.4523063e-08 5.784879e-06 4.9047827e-07 1.1995577e-06 3.7684793e-05 1.0863562e-05 1.5218344e-05 2.7627704e-05
2.8244449e-05 1.3858753e-05 4.758913e-09 5.4179097e-08 4.5123613e-08 2.7149058e-08 2.290971e-08 1.506293e-07
2.7225875e-08 2.4224432e-08 2.4326453e-06 2.9857796e-07 1.1374993e-06 3.2804594e-05 1.1039122e-05 2.0090381e-05
1.1780549e-05 2.9250248e-05 2.4422205e-05 3.0583809e-09 3.5919467e-08 2.3156149e-08 8.8556655e-09 1.7711677e-08
7.00586e-08 1.6809643e-08 2.1236056e-08 8.391285e-07 1.7321155e-07 6.073742e-07 2.3322025e-05 5.8892783e-06
1.3096714e-05 8.339387e-06 1.972342e-05 1.4632694e-05 4.249797e-09 4.5920114e-08 8.5059135e-08 3.2063273e-08
3.7259785e-08 9.8630075e-08 7.4224275e-08 5.0483635e-08 2.3222499e-06 3.3253053e-07 1.197555e-06 2.64766e-05
1.3846091e-05 1.473431e-05 2.1599011e-05 4.5086683e-05 2.2191123e-05 2.1749038e-09 3.2828982e-08 2.5676316e-08
2.9075018e-08 1.3924505e-08 5.2902582e-08 5.078031e-08 1.5832205e-08 2.7352153e-06 2.115112e-07 5.8592e-07
1.8226345e-05 5.6719928e-06 1.0301738e-05 1.2954511e-05 1.2197557e-05 1.6677255e-05 1.9313378e-09 2.6475218e-08
2.2856458e-08 1.5978937e-08 1.1513851e-08 2.996444e-08 3.9477943e-08 2.0390386e-08 1.5039204e-06 1.510864e-07
4.3712433e-07 1.3541911e-05 6.1761216e-06 6.7332503e-06 1.1276253e-05 1.4579434e-05 8.873192e-06 2.2282747e-09
