saved_models/actor_ep950.pth (torch, 872215 bytes, 21 tensors)

log_std f4 [6]
-1.8614023 -1.9913803 -1.7927024 -1.9993957 -2.1663322 -1.8575984
00000000: 6e42 eebf 8de5 febf 4677 e5bf 33ec ffbf
00000010: 30a5 0ac0 c9c5 edbf

net.0.weight f4 [256, 17]
-0.34595487 0.7305896 0.09273227 0.17853701 0.0037413232 0.12875664 0.13597444 -0.44748026
0.083712764 -0.30348504 -0.35985398 -0.19602598 -0.013993887 0.06466769 0.17572793 -0.0011807822
0.05846855 0.21817638 -0.0043645594 0.5130223 -0.10304067 -0.020206798 -0.10534701 0.065545
-0.29450306 0.18423074 -0.020883502 -0.042862527 0.0107442355 0.008309211 0.07148483 0.17333981
0.06409743 0.11050097 0.06440402 -0.6784166 0.1233355 -0.1422683 -0.274951 0.0353798
0.026439438 -0.13902293 0.17017165 -0.28652167 -0.30701524 -0.15998445 0.033479545 0.12750952
-0.09445528 -0.014212176 -0.089897774 -0.046395525 0.048881456 -0.10175447 -0.065241 0.2518578
-0.11138888 -0.08545128 0.038402032 0.090685956 0.16321167 0.09046515 -0.09072521 -0.023191042
0.13418905 -0.08413876 -0.0852134 0.080726266 -0.12231315 -0.40756533 -0.28065592 0.48961514
-0.21544221 0.09917363 0.1432135 0.27395737 -0.14291556 -0.23571984 -0.3679957 -0.08434876
-0.13252321 0.0210463 -0.010371615 0.101095594 -0.0263509 0.17584105 0.23929965 0.007372943
-0.2342188 -0.13342169 -0.2836886 0.03138704 0.14859618 -0.33377424 -0.21372433 -0.021669522
-0.2102193 -0.15781179 -0.16111743 0.12542799 -0.048977707 -0.22074679 0.021446826 -0.54083383
0.11813704 -0.5044124 0.13724913 -0.27997524 -0.20736551 -0.20363724 0.0389353 -0.5511554
0.1937717 0.049260583 0.1388086 -0.0040385015 -0.12537764 -0.05646551 -0.062008977 0.12665991
0.031111918 0.047823206 -0.20414867 0.26562428 0.015952196 0.0861361 -0.23519194 0.20387267
-0.102820374 -0.0023795431 0.1817979 0.10905225 -0.111651815 0.20300512 0.14346308 0.010287708
0.4097357 -0.37189433 -0.26253963 -0.023298817 0.28542835 -0.1255543 0.10054715 0.13177955
-0.22711112 -0.22282927 -0.39401338 -0.1571797 -0.27202982 -0.09253887 0.08919337 -0.02470193
0.05059389 0.06786122 0.24250647 -0.18202578 -0.24117026 0.12714185 0.32368326 0.25082856
0.00022047675 0.13505773 0.18091054 0.17908697 0.22727057 0.13011047 0.07072004 -0.053929728
0.2034064 -0.15523294 -0.27414393 0.5277263 0.25323156 0.24074623 -0.22641064 0.35033867
0.1963281 0.25048405 0.04198098 0.14088485 -0.059787568 -0.06802994 0.1770901 -0.060950372
0.22580352 0.11764684 0.067736834 -0.1954101 0.085651286 -0.20444109 0.05676793 -0.27448508
-0.2756588 -0.2623346 0.1877643 -0.10964719 -0.2928217 0.08185841 -0.07150573 0.051289648
-0.14277598 -0.098764814 0.019119458 -0.06601147 -0.06703142 -0.5903847 0.37379515 0.55449086
-0.0007526363 0.19323339 -0.25660336 0.11149641 -0.27936056 -0.08286007 -0.4088081 -0.009237254
-0.17244005 0.0988561 -0.21694897 -0.078457974 0.08810348 0.35574272 -0.37288433 -0.024888314
0.2283334 0.10486477 -0.34463578 -0.33857268 -0.1584138 0.14341627 -0.07940894 -0.10474467
-0.16033405 0.17593998 0.128083 0.16138755 0.0487442 -0.14353453 0.027017854 -0.073934175
-0.40381843 -0.2584847 -0.24733873 -0.35364684 0.15635832 0.25302547 0.04987477 0.17076603
0.07816891 -0.12550193 0.17044401 0.19031323 0.13203357 0.20379524 -0.19395429 0.14611694
00000000: ff20 b1be ec07 3b3f 6bea bd3d 68d2 363e
00000010: fd30 753b c8d8 033e e23c 0b3e 221c e5be
00000020: 9971 ab3d 6462 9bbe c83e b8be 09bb 48be
00000030: 9e46 65bc 7e70 843d 06f2 333e 7ac4 9aba
00000040: b87c 6f3d a169 5f3e 9404 8fbb 6e55 033f
00000050: fd06 d3bd ba88 a5bc 2cc0 d7bd 753c 863d
00000060: 1bc9 96be fca6 3c3e e113 abbc 9e90 2fbd
00000070: 9708 303c 5b23 083c a366 923d fe7f 313e
00000080: 8345 833d 554e e23d 41e6 833d b6ac 2dbf
00000090: 5397 fc3d c8ae 11be 61c6 8cbe 69ea 103d
000000a0: 8597 d83c 075c 0ebe 7a41 2e3e f8b2 92be
000000b0: 1a31 9dbe f7d2 23be d921 093d db91 023e
000000c0: c571 c1bd 30da 68bc 531c b8bd 3c09 3ebd
000000d0: ec37 483d a664 d0bd 139d 85bd 81f3 803e
000000e0: da1f e4bd 1501 afbd 734b 1d3d 8fb9 b93d
000000f0: f620 273e cb45 b93d 24ce b9bd 24fb bdbc
00000100: db68 093e f150 acbd 5d84 aebd d053 a53d
00000110: 517f fabd 67ac d0be 22b2 8fbe d6ae fa3e
00000120: e29c 5cbe 8b1b cb3d 8fa6 123e 2444 8c3e
00000130: 7558 12be 8b60 71be ef69 bcbe 0bbf acbd
00000140: 2ab4 07be 4a69 ac3c b5ed 29bc 350b cf3d
00000150: d8dd d7bc ad0f 343e f80a 753e bb98 f13b
00000160: 0ed7 6fbe b29f 08be a23f 91be b28f 003d
00000170: 9929 183e 75e4 aabe 8dda 5abe 4884 b1bc
00000180: ba43 57be 6a99 21be f8fb 24be 3270 003e
00000190: d99c 48bd 720b 62be 41b1 af3c 1674 0abf
000001a0: d5f1 f13d 2c21 01bf 098b 0c3e ea58 8fbe
000001b0: a057 54be 4886 50be 9f7a 1f3d 8518 0dbf
000001c0: 176c 463e 77c5 493d d723 0e3e 6855 84bb
000001d0: ff62 00be 6148 67bd 20fd 7dbd 23b3 013e
000001e0: 6cde fe3c 44e2 433d 590c 51be e8ff 873e
000001f0: 2eae 823c 2068 b03d 28d6 70be ffc3 503e
00000200: 7d93 d2bd 1cf2 1bbb 3b29 3a3e c956 df3d
00000210: b5a9 e4bd 93e0 4f3e fce7 123e c68d 283c
00000220: e1c8 d13e ef68 bebe 986b 86be 29dd bebc
00000230: aa23 923e 4e91 00be aaeb cd3d 38f1 063e
00000240: d18f 68be 5b2d 64be 1fbc c9be b7f3 20be
00000250: 7e47 8bbe 0585 bdbd 03ab b63d b45b cabc
00000260: 8a3b 4f3d d3fa 8a3d 9e53 783e f764 3abe
00000270: 56f5 76be 7931 023e d0b9 a53e 9a6c 803e
00000280: c72f 6739 934c 0a3e 9d40 393e 9362 373e
00000290: 9eb9 683e ae3b 053e abd5 903d 6be5 5cbd
000002a0: c449 503e 62f5 1ebe 985c 8cbe 1219 073f
000002b0: 91a7 813e 2e86 763e 31d8 67be 975f b33e
000002c0: 3c0a 493e 723f 803e 40f4 2b3d 1e44 103e
000002d0: cfe3 74bd 4853 8bbd 1b57 353e 19a7 79bd
000002e0: 0a39 673e d4f0 f03d 9cb9 8a3d 9619 48be
000002f0: f169 af3d 0159 51be 7d85 683d 4f89 8cbe
00000300: 2623 8dbe b850 86be 4945 403e b58e e0bd
00000310: baec 95be 62a5 a73d 9971 92bd 1815 523d
00000320: de33 12be 3545 cabd 69a0 9c3c 0631 87bd
00000330: c547 89bd 7423 17bf 1462 bf3e 1df3 0d3f
00000340: 914c 45ba f9de 453e 8461 83be 3b58 e43d
00000350: 5908 8fbe 8ab2 a9bd 4c4f d1be da57 17bc
00000360: 2094 30be 1175 ca3d df27 5ebe 93ae a0bd
00000370: 996f b43d e923 b63e b2ea bebe 94e2 cbbc
00000380: 3bd0 693e 57c3 d63d 1a74 b0be 6659 adbe
00000390: 3a37 22be b7db 123e 28a1 a2bd 6084 d6bd
000003a0: 9c2e 24be 9c29 343e 3128 033e c742 253e
000003b0: 00a8 473d b7fa 12be 8c54 dd3c cd6a 97bd
000003c0: 4ac1 cebe 1b58 84be 5d46 7dbe 3311 b5be
000003d0: 651c 203e 8e8c 813e 7d49 4c3d 4add 2e3e
000003e0: 0617 a03d 9483 00be e088 2e3e 79e1 423e
000003f0: cf33 073e b3af 503e f49b 46be ae9f 153e

net.0.bias f4 [256]
0.048550136 -0.040463153 0.18886293 -0.21558158 -0.18852691 -0.07647913 0.19070308 -0.22355229
-0.28363675 0.17408073 -0.15268134 -0.15288995 0.20278046 -0.32560387 -0.024637613 0.10259434
0.005519256 -0.24384876 -0.086386815 0.20321731 -0.027755568 -0.24664356 0.051226232 0.22703627
-0.022555865 -0.2314682 0.014272452 0.24716322 -0.11185054 0.18755484 0.018810378 -0.14879382
0.3017266 -0.18110815 0.3470034 0.20045483 -0.16650282 0.045677874 -0.046659235 -0.015484161
-0.27960745 0.08530749 0.009428071 -0.09624798 -0.20189102 -0.09442366 -0.2906997 -0.20765616
0.14279602 -0.06659764 -0.13779542 -0.19328715 0.03508699 -0.060704857 0.122867085 0.11683975
-0.11211169 -0.14575239 -0.18134439 -0.22634675 -0.09510723 -0.0058701336 -0.38456297 -0.20865501
-0.26318216 -0.010603028 -0.0033320836 0.10043207 -0.042777013 -0.100448005 -0.1179102 -0.20480648
-0.15516303 -0.09374098 0.13107778 -0.20747821 -0.03379224 -0.100273974 -0.10796062 -0.21523598
-0.100203104 -0.011142643 -0.25810847 -0.0036494972 0.030142652 0.08534358 -0.15095523 0.0266261
-0.026868336 0.070646726 -0.15077296 -0.07582866 -0.010006783 -0.24618733 -0.09642114 -0.19821127
-0.29846853 -0.35681263 -0.08012449 0.056319803 -0.03065422 -0.21768144 -0.12534411 -0.30506194
0.071841516 0.12613569 0.008331594 0.08618562 0.10805842 -0.16955124 -0.34983343 0.051343534
-0.19132696 -0.31868675 -0.1185657 -0.29591525 0.2535268 -0.103198916 0.1667272 -0.38762605
-0.21917334 0.23907337 0.043728422 -0.13789016 -0.05940277 0.144034 0.28707182 0.00022554307
-0.013742515 0.09963175 -0.14413702 -0.26062393 0.01863764 -0.31304753 -0.17593199 0.040444426
0.040763985 -0.105018266 -0.12853308 -0.13927007 0.17735986 -0.20004107 0.015998146 -0.11870346
-0.21230981 0.24370454 0.09914361 -0.2076325 -0.0072049475 -0.14247045 -0.011781972 -0.073766164
-0.14399773 0.025093405 0.04714429 -0.19255143 -0.004305485 -0.07805876 -0.16992271 -0.31044027
-0.30768973 0.029387528 -0.18465108 0.015695563 -0.31213626 -0.008519956 0.038834576 0.03980637
0.011194496 -0.18061262 -0.2885362 0.0024046195 -0.10255968 0.06799796 0.12924805 0.37469026
-0.06604838 -0.02130857 0.057088047 -0.3721786 0.096062474 -0.19166704 -0.11012516 -0.23350278
0.025737321 0.01822817 0.19366881 -0.25071895 -0.079747595 0.18748388 0.21928965 0.17497931
-0.39527974 0.1364953 -0.18862903 -0.36096185 -0.090011045 -0.17096698 0.015055836 0.097298026
-0.38921413 -0.19551964 0.053148255 0.24888347 -0.19530307 0.021378785 0.073462054 0.049910627
-0.098849535 0.0005181339 -0.48805937 0.025670307 -0.10396345 -0.20610707 -0.019798243 -0.41576475
-0.06749601 0.025597274 -0.10395482 -0.35291493 0.12403697 -0.03478097 -0.1342253 0.29756027
0.06496624 -0.26600897 0.053374417 0.0033070648 0.1387441 -0.26076514 0.02395585 0.18379717
-0.037280068 0.13535096 -0.28358388 -0.28823736 -0.15300208 -0.12382896 0.026788315 0.07721009
-0.16266659 -0.28298604 -0.059379816 -0.28955936 -0.28608724 -0.3679658 -0.051033936 -0.12960987
-0.085782774 0.058438122 -0.11561839 -0.2779075 0.29687518 -0.15186971 -0.12143639 -0.3078121
00000000: 82dc 463d b1bc 25bd 4965 413e 6bc1 5cbe
00000010: 330d 41be 17a1 9cbd ab47 433e e4ea 64be
00000020: d638 91be 3842 323e 7f58 1cbe 2f8f 1cbe
00000030: aea5 4f3e 8db5 a6be d2d4 c9bc fb1c d23d
00000040: e0da b43b 7db3 79be 92eb b0bd 3318 503e
00000050: a55f e3bc 2190 7cbe 99d2 513d 327c 683e
00000060: 14c7 b8bc 0006 6dbe 01d7 693c 5b18 7d3e
00000070: e511 e5bd 600e 403e 3918 9a3c 685d 18be
00000080: e97b 9a3e 6a74 39be 6eaa b13e 0844 4d3e
00000090: b77f 2abe b918 3b3d c11d 3fbd 47b1 7dbc
000000a0: b528 8fbe b1b5 ae3d 3278 1a3c a91d c5bd
000000b0: 85bc 4ebe 3161 c1bd 97d6 94be d1a3 54be
000000c0: 1f39 123e 5864 88bd 3e1a 0dbe 11ed 45be
000000d0: 60b7 0f3d a8a5 78bd bda1 fb3d ae49 ef3d
000000e0: d09a e5bd 1d40 15be 58b2 39be 71c7 67be
000000f0: 94c7 c2bd 405a c0bb 70e5 c4be a9a9 55be
00000100: d0bf 86be 53b8 2dbc 165f 5abb 54af cd3d
00000110: f336 2fbd afb7 cdbd e77a f1bd cab8 51be
00000120: 0fe3 1ebe 45fb bfbd 4139 063e 2b75 54be
00000130: bb69 0abd 715c cdbd 751a ddbd d266 5cbe
00000140: 4937 cdbd a28f 36bc cb26 84be 672c 6fbb
00000150: b9ed f63c 9dc8 ae3d 0294 1abe fb1e da3c
00000160: fc1a dcbc 3baf 903d 3a64 1abe 0e4c 9bbd
00000170: 7df3 23bc 8818 7cbe 7278 c5bd e5f7 4abe
00000180: ded0 98be 25b0 b6be 4f18 a4bd 98af 663d
00000190: 8f1e fbbc e2e7 5ebe 355a 00be 1431 9cbe
000001a0: a521 933d b729 013e 3d81 083c 1682 b03d
000001b0: bc4d dd3d d79e 2dbe 5e1d b3be 994d 523d
000001c0: 37eb 43be e92a a3be 93d2 f2bd 3482 97be
000001d0: 44ce 813e f459 d3bd 89ba 2a3e ec76 c6be
000001e0: fa6e 60be a6cf 743e 931c 333d 1433 0dbe
000001f0: 5250 73bd a67d 133e 14fb 923e c27f 6c39
00000200: 4928 61bc bb0b cc3d a898 13be 8070 85be
00000210: f7ad 983c c447 a0be 8427 34be 0ea9 253d
00000220: 23f8 263d d113 d7bd 2d9e 03be d09c 0ebe
00000230: d39d 353e 91d7 4cbe 8b0e 833c cd1a f3bd
00000240: be67 59be af8d 793e ce0b cb3d 9d9d 54be
00000250: 7b17 ecbb c6e3 11be 2c09 41bc b712 97bd
00000260: 2474 13be af90 cd3c 5f1a 413d 342c 45be
00000270: 0715 8dbb 45dd 9fbd 3800 2ebe 07f2 9ebe
00000280: 8289 9dbe 1dbe f03c 2c15 3dbe fb93 803c
00000290: 53d0 9fbe 4997 0bbc 0111 1f3d 010c 233d
000002a0: 1f69 373c 84f2 38be 04bb 93be d296 1d3b
000002b0: cf0a d2bd 8442 8b3d 9a59 043e 67d7 bf3e
000002c0: 6044 87bd 4f8f aebc 28d5 693d 328e bebe
000002d0: 67bc c43d 5d44 44be 4d89 e1bd 5a1b 6fbe
000002e0: 13d7 d23c 3e53 953c 1e51 463e 3c5e 80be
000002f0: b552 a3bd c6fb 3f3e 778d 603e c72d 333e
00000300: 1b62 cabe 6dc5 0b3e f827 41be fecf b8be
00000310: b657 b8bd f811 2fbe c1ac 763c 3044 c73d
00000320: 1347 c7be 4d36 48be fcb1 593d 4fdb 7e3e
00000330: 87fd 47be 9022 af3c 4673 963d 166f 4c3d
00000340: a071 cabd 61d3 073a ebe2 f9be 894a d23c
00000350: caea d4bd bb0d 53be ed2f a2bc 1edf d4be
00000360: 593b 8abd 60b1 d13c 44e6 d4bd 44b1 b4be
00000370: 1807 fe3d 7e76 0ebd 5b72 09be d259 983e
00000380: 050d 853d 5432 88be 229f 5a3d 57bb 583b
00000390: ef12 0e3e 0283 85be 0f3f c43c 5335 3c3e
000003a0: fcb2 18bd 7199 0a3e e831 91be d993 93be
000003b0: 94ac 1cbe 0a9a fdbd 2b73 db3c 5320 9e3d
000003c0: 1292 26be 8ce3 90be 4038 73bd 2041 94be
000003d0: 077a 92be 0366 bcbe f608 51bd 73b8 04be
000003e0: e1ae afbd d05c 6f3d 56c9 ecbd e449 8ebe
000003f0: 0600 983e bc83 1bbe a4b3 f8bd 8c99 9dbe

net.2.weight f4 [256, 256]
-0.024535595 -0.072128534 -0.015014499 0.026036143 -0.09134436 0.07494298 0.05474156 0.0038993913
-0.046466608 -0.035273343 -0.08779132 -0.057252657 -0.124308415 -0.020111937 0.060226656 0.050499246
-0.045951016 -0.055662133 0.05055753 0.035056226 -0.04919183 0.060207866 -0.06496043 -0.028709484
-0.036137976 -0.11502405 0.025728015 -0.05042403 0.00084574794 -0.06579521 -0.024877954 0.07317068
0.016330255 -0.01047243 -0.035610154 -0.10994412 -0.08488904 -0.016672222 0.06368496 -0.036789015
-0.03429478 -0.033791482 -0.0155160315 -0.04226615 -0.07831618 0.061279546 0.03448306 -0.06588562
-0.09719796 -0.051049296 -0.059802122 -0.026429245 0.00053151365 0.027086426 0.07905387 0.0010217518
-0.10345423 -0.11691133 -0.07328776 0.001758744 -0.05736738 -0.106120564 0.011660763 -0.035506383
-0.07227753 -0.053929925 -0.14274374 0.008541524 -0.048993386 -0.0322771 0.016927809 -0.02500267
-0.016738085 -0.048313286 0.006220218 0.028367722 -0.0047689504 -0.14627393 0.04065198 0.010093216
-0.03653163 -0.06416849 -0.020748356 -0.089037165 -0.046046425 -0.02377888 -0.018196458 -0.093878984
-0.080506116 -0.009915008 -0.052957892 0.05699778 -0.05026677 -0.026260408 -0.0715864 -0.06567798
-0.022490565 -4.4135246e-05 -0.058885004 -0.049584523 0.029366689 0.045747478 -0.03258762 0.041554205
-0.009833278 -0.02640141 -0.11837434 -0.054012895 0.009888724 0.07902151 0.045691896 -0.046156112
-0.098059095 0.044293333 -0.08701601 -0.04733499 -0.17669065 0.0010368393 -0.003259182 -0.09215123
-0.11307148 -0.07500228 -0.059482757 -0.005451186 -0.05946811 -0.005559781 -0.020419452 -0.0123634
0.082525246 -0.024951423 -0.011117038 -0.09964735 0.00292352 -0.013006958 0.037193067 -0.06419903
-0.021534143 -0.05719763 -0.028313808 -0.08226728 -0.16737914 -0.019803347 0.040389568 0.072071515
-0.09079172 -0.085220836 0.043110333 0.033744387 -0.0043384917 -0.09010748 -0.052780226 0.0067659845
-0.08088285 0.026858099 -0.06511109 -0.023662051 0.022201374 0.04175728 -0.057097342 0.054437533
0.05136229 -0.009131006 -0.052853964 -0.082303934 -0.035518114 0.025447113 -0.067535974 0.017442696
0.025018131 -0.01087543 -0.016244125 -0.045523897 0.07967443 -0.012807857 0.051444307 -0.06385779
-0.06863356 -0.02474681 -0.07122586 -0.015733665 0.032140564 -0.022310983 -0.007013655 0.014295146
-0.040064096 0.010833808 -0.08257393 0.03273636 -0.02922173 -0.0483096 -0.084589176 -0.033038832
-0.012304956 -0.07120534 -0.032697618 -0.05683052 0.014894982 -0.086774476 -0.00043214974 0.020356894
-0.06820466 -0.050693184 -0.090622164 -0.09124488 -0.15637802 -0.041020773 -0.09927741 -0.06203253
0.040859953 -0.023723409 -0.060248226 0.041473653 0.045240693 0.00067825365 -0.04715474 0.03201679
-0.10296924 0.02277319 -0.035970576 -0.02496413 -0.015462677 -0.042819854 0.04305175 -0.08882046
0.0055795056 -0.03861627 0.004671676 -0.03072126 -0.07273219 -0.098960556 -0.015582552 -0.028223408
-0.005878112 -0.07723845 -0.018442133 -0.064924374 -0.055736344 -0.028449316 -0.056861367 -0.03415911
-0.037534866 -0.04647466 -0.12702 0.085700534 -0.08086021 0.056248464 0.039448537 0.04218109
0.042310003 -0.09900284 -0.026488284 -0.019736849 -0.045442976 -0.09564899 -0.03390231 -0.03953294
00000000: dffe c8bc 20b8 93bd 60ff 75bc c049 d53c
00000010: c012 bbbd b57b 993d b038 603d ee8c 7f3b
00000020: c553 3ebd c87a 10bd f0cb b3bd c381 6abd
00000030: 6995 febd cac1 a4bc 3ab0 763d 4cd8 4e3d
00000040: 2237 3cbd fafd 63bd 6a15 4f3d 1e97 0f3d
00000050: 5f7d 49bd 869c 763d f909 85bd 2730 ebbc
00000060: 6a05 14bd bb91 ebbd 8fc3 d23c 6d89 4ebd
00000070: 2fb5 5d3a a4bf 86bd dacc cbbc 82da 953d
00000080: 07c7 853c 8e94 2bbc f4db 11bd 622a e1bd
00000090: 4eda adbd 2f94 88bc 436d 823d 14b0 16bd
000000a0: af78 0cbd f068 0abd f436 7ebc 451f 2dbd
000000b0: 3c64 a0bd 4300 7b3d 1c3e 0d3d 0aef 86bd
000000c0: b90f c7bd 1119 51bd 12f3 74bd 2582 d8bc
000000d0: 4755 0b3a 5ae4 dd3c ffe6 a13d 4dec 853a
000000e0: d0df d3bd 356f efbd e517 96bd a885 e63a
000000f0: 0ffa 6abd bd55 d9bd c90c 3f3c 246f 11bd
00000100: 3e06 94bd a0e5 5cbd 6a2b 12be c0f1 0b3c
00000110: 4aad 48bd fe34 04bd 30ac 8a3c 66d2 ccbc
00000120: 4f1e 89bc 27e4 45bd f8d2 cb3b 6d63 e83c
00000130: db44 9cbb d5c8 15be b182 263d 045e 253c
00000140: 31a2 15bd c56a 83bd 75f8 a9bc 1e59 b6bd
00000150: 2d9b 3cbd edcb c2bc bd10 95bc a043 c0bd
00000160: 64e0 a4bd 8f72 22bc 60ea 58bd 8176 693d
00000170: 87e4 4dbd 1120 d7bc e49b 92bd 2d82 86bd
00000180: 223e b8bc dc1d 39b8 6731 71bd 2419 4bbd
00000190: 6992 f03c b561 3b3d 997a 05bd be34 2a3d
000001a0: c21b 21bc c547 d8bc 3f6e f2bd a03c 5dbd
000001b0: 5104 223c 08d6 a13d 6d27 3b3d 310e 3dbd
000001c0: 35d3 c8bd ed6c 353d 7335 b2bd 56e2 41bd
000001d0: 65ee 34be 8ee6 873a 0098 55bb c9b9 bcbd
000001e0: 0592 e7bd cc9a 99bd 31a4 73bd dd9f b2bb
000001f0: d594 73bd d32e b6bb b246 a7bc dc8f 4abc
00000200: ff02 a93d ed66 ccbc 3d24 36bc e913 ccbd
00000210: 8798 3f3b 231b 55bc c257 183d c87a 83bd
00000220: 5f68 b0bc 1048 6abd 5cf2 e7bc bf7b a8bd
00000230: 7065 2bbe a13a a2bc 886f 253d 3b9a 933d
00000240: 02f1 b9bd 4388 aebd 7694 303d 8e37 0a3d
00000250: e829 8ebb 458a b8bd 1430 58bd 31b5 dd3b
00000260: e8a5 a5bd 8405 dc3c f758 85bd ebd6 c1bc
00000270: a8df b53c ae09 2b3d e7de 69bd e4f9 5e3d
00000280: 4461 523d 379a 15bc 667d 58bd f78e a8bd
00000290: 717b 11bd 7776 d03c 4d50 8abd fce3 8e3c
000002a0: d3f2 cc3c dc2e 32bc 6612 85bc 4477 3abd
000002b0: 592c a33d 0cd8 51bc 44b7 523d dfc7 82bd
000002c0: c08f 8cbd d2b9 cabc ddde 91bd e3e3 80bc
000002d0: d3a5 033d 86c5 b6bc cdd2 e5bb 3036 6a3c
000002e0: 401a 24bd 4980 313c 851c a9bd 9016 063d
000002f0: 6962 efbc 4ae0 45bd 173d adbd ba53 07bd
00000300: ba9a 49bc 1bd4 91bd f0ed 05bd 1fc7 68bd
00000310: 150a 743c d1b6 b1bd 2892 e2b9 80c3 a63c
00000320: e3ae 8bbd a8a3 4fbd 1d98 b9bd 98de babd
00000330: 8f21 20be 6605 28bd f451 cbbd d215 7ebd
00000340: c45c 273d 9857 c2bc d8c6 76bd 47e0 293d
00000350: 4e4e 393d d5cc 313a 5425 41bd 0a24 033d
00000360: 89e1 d2bd d78e ba3c e255 13bd 9381 ccbc
00000370: 2b57 7dbc df63 2fbd 0857 303d 80e7 b5bd
00000380: 49d4 b63b 182c 1ebd dc14 993b 27ab fbbc
00000390: 9df4 94bd d5ab cabd f64d 7fbc c734 e7bc
000003a0: 2d9d c0bb 312f 9ebd f513 97bc 12f7 84bd
000003b0: cb4b 64bd 8a0e e9bc 77e7 68bd 6cea 0bbd
000003c0: 29be 19bd 375c 3ebd 8811 02be c383 af3d
000003d0: 0a9a a5bd ca64 663d ca94 213d 14c6 2c3d
000003e0: 414d 2d3d 00c2 cabd f5fd d8bc 2caf a1bc
000003f0: 6a22 3abd 9ee3 c3bd 26dd 0abd 4bed 21bd

net.2.bias f4 [256]
-0.066039965 -0.04566476 0.12077055 -0.03472494 -0.012788914 -0.007572213 -0.08870781 -0.0051278565
-0.08149332 -0.07089306 0.044463083 0.039082758 -0.054592993 0.07840602 -0.06687511 -0.08610241
-0.1005869 -0.18802163 -0.021535194 0.02561137 -0.041793004 0.01796696 -0.014618982 -0.07887191
0.04706667 0.08394721 0.084147945 0.059351444 -0.024275377 0.01093084 -0.048196457 -0.1109147
0.07127964 0.0668413 -0.11910987 -0.1255879 -0.041418705 -0.03171487 0.070067376 -0.11839653
-0.017798811 -0.056673694 0.10704163 -0.06726806 -0.066844426 -0.0686374 -0.0783903 0.0173798
0.00043436358 0.0025517994 0.09473754 0.012112925 -0.050893594 0.14802459 -0.08196412 -0.16877483
0.10073363 -0.102066636 -0.060608786 0.0644809 0.036457866 -0.03320995 -0.14414725 -0.09628428
0.116269946 0.017122228 -0.006215091 -0.08468675 -0.015161986 -0.09734909 -0.019350234 0.041604977
-0.0387517 -0.032888174 -0.037008107 -0.0852381 -0.0247259 0.02038866 0.093632914 -0.016007522
-0.10924467 -0.040235482 0.031246362 -0.000813807 0.0984086 0.02098259 0.086632125 -0.067160994
0.080507025 -0.06821097 -0.05591157 -0.058967285 -0.1802423 -0.04491923 -0.042675707 0.036293793
-0.01915816 0.089003265 0.12934533 0.03565321 0.0755548 -0.11782667 -0.096355915 -0.056514915
-0.06333706 0.031044163 0.07477081 -0.021002645 0.07429394 0.008891071 -0.031585388 -0.023023225
0.027903749 0.053114776 -0.07520874 -0.10163517 0.13019171 -0.015467331 -0.013080034 -0.05008229
-0.06488936 -0.04855608 0.047924053 0.0071630054 -0.009633433 -0.108004406 -0.15160763 -0.012784571
0.061497264 -0.05120877 -0.049018938 -0.050090514 -0.08490444 -0.07660917 -0.005190656 0.14995213
0.17002274 0.023428163 -0.061898716 -0.047561664 -0.057654098 -0.02912204 0.110545605 -0.08288225
0.18511702 -0.05685876 -0.030087823 -0.08357711 -0.07902136 -0.03398646 0.025374332 0.025039067
-0.0825915 -0.015292087 0.027737746 -0.037886847 -0.024142316 -0.009990127 0.11615146 0.08473551
-0.03814884 -0.0046621314 0.09444762 -0.0015261858 -0.02165328 0.04879295 -0.040581003 -0.003943165
0.011239612 -0.12662725 0.13538763 -0.03073543 -0.06816496 -0.004122438 0.09780158 0.024983322
0.20869891 0.04533829 0.07178673 -0.062621795 0.010813251 -0.07778875 0.030248595 0.09738525
0.08492064 -0.08121478 -0.042576164 0.048257798 0.12981747 -0.006868556 -0.018728642 -0.0866622
0.08516616 -0.014376988 0.0022251878 -0.026147103 0.116630755 0.017322514 -0.025340525 0.08780443
-0.018686624 -0.06937905 -0.029919932 -0.08083552 -0.019943133 -0.007185336 -0.074888624 0.037160035
0.014551542 -0.100008175 0.037941895 -0.050176363 -0.0028045515 -0.04843856 -0.027231563 0.014991277
-0.02437839 0.04377824 -0.079180546 -0.004867786 -0.0053392975 0.09206199 -0.08437771 -0.032811847
0.021482082 -0.056134954 -0.05962937 -0.11073733 -0.026803542 -0.021537418 -0.023575548 -0.014239404
0.059630398 0.007208884 -0.05794715 0.0031659098 -0.05942076 0.027025113 -0.123309694 -0.0656191
-0.023337701 -0.065801024 -0.058812544 -0.07817241 0.057245202 -0.07237675 -0.049851567 0.0035861572
0.026456587 -0.018577626 -0.03601871 0.06526027 -0.0842403 -0.13566159 -0.00516851 -0.00087844185
00000000: f63f 87bd f90a 3bbd 8d56 f73d bd3b 0ebd
00000010: 9888 51bc 5420 f8bb 71ac b5bd 9407 a8bb
00000020: f8e5 a6bd 6130 91bd ec1e 363d 3e15 203d
00000030: e79c 5fbd 5693 a03d d1f5 88bd 7656 b0bd
00000040: 8100 cebd be88 40be 936a b0bc f0ce d13c
00000050: 242f 2bbd 722f 933c 7484 6fbc 9987 a1bd
00000060: fbc8 403d 84ec ab3d c255 ac3d 801a 733d
00000070: 28dd c6bc 4417 333c a669 45bd 3f27 e3bd
00000080: 0ffb 913d 17e4 883d e0ef f3bd 1d9a 00be
00000090: a9a6 29bd 74e7 01bd 7c7f 8f3d e179 f2bd
000000a0: d0ce 91bc ad22 68bd a438 db3d d6c3 89bd
000000b0: bbe5 88bd c491 8cbd 188b a0bd 1560 8e3c
000000c0: 4bbb e339 173c 273b c105 c23d 4a75 463c
000000d0: cd75 50bd c293 173e cedc a7bd 4fd3 2cbe
000000e0: 6f4d ce3d 5008 d1bd eb40 78bd 900e 843d
000000f0: d854 153d 2807 08bd 569b 13be b130 c5bd
00000100: f01e ee3d ea43 8c3c f6a7 cbbb 3f70 adbd
00000110: fb69 78bc f65e c7bd 6284 9ebc fb69 2a3d
00000120: 1aba 1ebd c0b5 06bd d095 17bd 5091 aebd
00000130: f88d cabc 1e06 a73c 9dc2 bf3d 3522 83bc
00000140: abbb dfbd f6cd 24bd 5ff8 ff3c aa55 55ba
00000150: 738a c93d aee3 ab3c 2f6c b13d b48b 89bd
00000160: dee0 a43d 31b2 8bbd 8803 65bd ae87 71bd
00000170: 7091 38be 3afd 37bd b9cc 2ebd cda8 143d
00000180: 93f1 9cbc 5847 b63d 1a73 043e 1a09 123d
00000190: 7abc 9a3d 1c4f f1bd 4056 c5bd 2f7c 67bd
000001a0: dcb6 81bd 5450 fe3c 7021 993d bd0d acbc
000001b0: 6c27 983d dbab 113c ae5f 01bd 349b bcbc
000001c0: 6796 e43c e18e 593d 0a07 9abd 1a26 d0bd
000001d0: fa50 053e b06a 7dbc a44d 56bc 1623 4dbd
000001e0: b6e4 84bd bde2 46bd 034c 443d a5b7 ea3b
000001f0: 8cd5 1dbc 6a31 ddbd 083f 1bbe 6176 51bc
00000200: 8ee4 7b3d 4ac0 51bd 15c8 48bd b62b 4dbd
00000210: 61e2 adbd 45e5 9cbd 6116 aabb 0d8d 193e
00000220: 711a 2e3e 6bec bf3c 8289 7dbd 05d0 42bd
00000230: b426 6cbd 5891 eebc bc65 e23d 2bbe a9bd
00000240: 518f 3d3e bbe4 68bd bd7a f6bc 7a2a abbd
00000250: f3d5 a1bd 6335 0bbd d5dd cf3c bb1e cd3c
00000260: bb25 a9bd a98b 7abc 453a e33c 3d2f 1bbd
00000270: 1bc6 c5bc a1ad 23bc d1e0 ed3d d089 ad3d
00000280: f541 1cbd cbc4 98bb c16d c13d 4c0a c8ba
00000290: 3862 b1bc 1edb 473d 4438 26bd aa35 81bb
000002a0: 5926 383c 93aa 01be 0ea3 0a3e dec8 fbbc
000002b0: 129a 8bbd 8415 87bb 324c c83d d3a9 cc3c
000002c0: 2bb5 553e a5b4 393d ec04 933d db3f 80bd
000002d0: 102a 313c b54f 9fbd e7cb f73c eb71 c73d
000002e0: dfea ad3d ef53 a6bd 5864 2ebd f8a9 453d
000002f0: dfee 043e a011 e1bb cf6c 99bc f47b b1bd
00000300: 986b ae3d 758d 6bbc 75d4 113b 7332 d6bc
00000310: 1bdc ee3d f2e7 8d3c ef96 cfbc cfd2 b33d
00000320: b114 99bc 9a16 8ebd a51a f5bc 188d a5bd
00000330: c85f a3bc f872 ebbb 355f 99bd 1f35 183d
00000340: 9769 6e3c 16d1 ccbd f668 1b3d bb85 4dbd
00000350: 91cc 37bb 8367 46bd ba14 dfbc f99d 753c
00000360: 30b5 c7bc d050 333d 6929 a2bd f381 9fbb
00000370: 46f5 aebb ff8a bc3d 39ce acbd b765 06bd
00000380: 31fb af3c c4ed 65bd ed3d 74bd 41ca e2bd
00000390: 1a93 dbbc 3d6f b0bc 8221 c1bc 644c 69bc
000003a0: 013f 743d 8138 ec3b fe59 6dbd 277b 4f3b
000003b0: 2f63 73bd c563 dd3c cb89 fcbd 4f63 86bd
000003c0: b52e bfbc b0c2 86bd 6ce5 70bd db18 a0bd
000003d0: f279 6a3d 433a 94bd 2831 4cbd bc05 6b3b
000003e0: 7cbb d83c 1b30 98bc 5b88 13bd 2da7 853d
000003f0: 2e86 acbd dfea 0abe 9b5c a9bb 3c47 66ba

mean.weight f4 [6, 256]
-0.09525444 -0.011450864 0.089869164 -0.06514782 0.08212035 -0.015451616 -0.12620352 0.0068907016
0.021726592 -0.007474904 -0.0263315 -0.1069846 0.12700877 0.010795695 -0.0121679045 -0.074874856
-0.07643315 -0.026552707 0.03823986 -0.090542555 -0.05501644 -0.021132499 -0.0755049 -0.019236034
-0.025629522 -0.109685615 -0.104622155 0.06021351 0.07650084 -0.004343406 0.036258534 -0.003355606
0.03474822 -0.081071295 -0.019579394 0.0074265283 0.10896097 -0.0074701747 0.07841325 0.14408255
0.080825076 -0.22359446 -0.039506976 -0.019080747 -0.02276982 -0.15349616 -0.025808938 0.015553198
0.03947312 0.01668387 -0.029411292 -0.026310883 -0.027407022 -0.09199911 0.08734495 0.024716593
-0.03969473 -0.06543584 -0.026610399 -0.045830745 0.033531886 0.0031852932 0.053076636 0.09450256
0.020311499 -0.036211286 -0.013789281 0.0032707083 0.006295361 0.116235375 -0.17062156 -0.020110574
-0.003305018 0.064096 -0.043601066 0.006307274 -0.043232262 0.1158273 -0.05740899 -0.015624788
0.03485166 0.0115686795 -0.06530573 -0.12781136 -0.062891535 -0.021557022 -0.032568835 0.006044259
0.016830137 0.049159955 -0.040041145 0.026297789 0.0324137 -0.04864833 0.06737532 0.0016166061
-0.0597665 -0.06213384 -0.11499382 0.0477709 -0.0006589324 0.033816338 -0.04189631 -0.023401463
-0.030058991 -0.11261516 -0.018222518 -0.01747478 0.044113506 -0.016610367 0.085560575 0.018738722
-0.10830933 0.022373805 0.06834144 -0.036876068 0.081436105 -0.050911993 0.059888486 -0.024304397
0.042049862 -0.052243464 -0.08932346 0.054943107 -0.056107346 -0.081414975 0.036852848 0.042210203
-0.0083696395 0.003944938 -0.09881282 -0.029352494 -0.06661264 -0.057731453 0.06374103 0.05434066
-0.0512133 0.03113399 -0.06520537 -0.06447094 -0.057466995 -0.0032924197 -0.027650367 0.09259138
-0.051281072 0.027353704 0.032013025 -0.10855367 -0.056310188 0.13125265 -0.0565056 -0.05177251
-0.057410594 0.06297482 -0.025523532 0.044884723 -0.08045394 -0.009740404 0.017933872 -0.016217282
0.060259506 -0.0029678943 0.01947037 -0.027329218 -0.101021536 0.09951131 -0.042327113 0.071791835
0.07846154 0.043126453 -0.052397195 -0.027569143 -0.025870973 0.021524398 -0.05204557 0.023726348
-0.057876218 -0.029013906 0.07334871 -0.04229476 -0.12869816 -0.04961086 -0.04186468 -0.06449727
0.06247948 0.05427245 -0.016647315 0.02421484 -0.035060048 -0.04151415 -0.009467746 0.026070882
0.09058879 0.09992082 -0.087039955 0.08770612 -0.044704758 -0.0321618 0.047019895 0.06780723
-0.015951756 -0.07289734 -0.030663697 0.10221617 -0.045109004 -0.02610907 -0.059770614 0.014417037
0.02973849 -0.03243571 0.05540125 0.030565968 0.13183178 0.0729975 0.032149635 0.00451034
-0.18071416 -0.04065038 0.04060006 0.011714165 0.09009883 0.005420396 -0.10213875 0.077057794
0.040605154 -0.028982341 0.045977004 0.0031276054 0.024854397 0.023255402 0.060343996 -0.05586019
0.0741364 0.00085719244 -0.07503234 0.15267467 -0.044054937 -0.037085637 -0.0803907 0.06620909
-0.1306267 0.035447024 -0.0024923547 0.0062948265 -0.071149014 -0.024447937 -0.011453484 0.021118335
-0.062057782 0.0732129 -0.025737837 0.08681094 0.023831122 -0.015034677 0.08885708 -0.074368656
00000000: c314 c3bd 689c 3bbc 530d b83d 386c 85bd
00000010: b72e a83d c628 7dbc 7f3b 01be 65cb e13b
00000020: f7fb b13c 0af0 f4bb 28b5 d7bc be1a dbbd
00000030: 960e 023e 6de0 303c e45b 47bc fd57 99bd
00000040: fc88 9cbd 1085 d9bc 66a1 1c3d 606e b9bd
00000050: eb58 61bd 101e adbc 50a2 9abd e394 9dbc
00000060: 01f5 d1bc daa2 e0bd 2444 d6bd 71a2 763d
00000070: 79ac 9c3d 2153 8ebb d483 143d bae9 5bbb
00000080: 2654 0e3d b508 a6bd f764 a0bc 3c5a f33b
00000090: ee26 df3d 5ec8 f4bb 2097 a03d 608a 133e
000000a0: 9e87 a53d f2f5 64be 11d2 21bd 3a4f 9cbc
000000b0: c687 babc 192e 1dbe 446d d3bc d7d2 7e3c
000000c0: 91ae 213d 9dac 883c f3ef f0bc ec89 d7bc
000000d0: b184 e0bc 086a bcbd e9e1 b23d 747a ca3c
000000e0: f196 22bd 3a03 86bd 0dfe d9bc 05b9 3bbd
000000f0: bb58 093d 5ac0 503b e366 593d 8f8a c13d
00000100: 4d64 a63c 4952 14bd 70ec 61bc 6159 563b
00000110: 5149 ce3b d00c ee3d 6bb7 2ebe eebe a4bc
00000120: 0099 58bb c344 833d 0897 32bd 40ad ce3b
00000130: 5014 31bd dd36 ed3d b025 6bbd 1cff 7fbc
00000140: 9dc0 0e3d 8f8a 3d3c 03bf 85bd fbe0 02be
00000150: 47cd 80bd 5a98 b0bc e666 05bd eb0e c63b
00000160: 5bdf 893c f35b 493d 2f02 24bd 766e d73c
00000170: 3ac4 043d 7943 47bd 12fc 893d 4de4 d33a
00000180: b8cd 74bd 0e80 7ebd e181 ebbd 6bab 433d
00000190: 34bc 2cba 0083 0a3d 779b 2bbd 6db4 bfbc
000001a0: 463e f6bc c7a2 e6bd 6447 95bc 4527 8fbc
000001b0: 5db0 343d 7712 88bc 623a af3d f381 993c
000001c0: 48d1 ddbd 4549 b73c 99f6 8b3d 5c0b 17bd
000001d0: f9c7 a63d 1889 50bd a14d 753d 041a c7bc
000001e0: 7a3c 2c3d 3efd 55bd 38ef b6bd 060c 613d
000001f0: d1d0 65bd e5bc a6bd 03f3 163d 9be4 2c3d
00000200: d020 09bc 8a44 813b 605e cabd a474 f0bc
00000210: 356c 88bd d177 6cbd a88a 823d 5094 5e3d
00000220: 0ac5 51bd b60c ff3c 658a 85bd 5709 84bd
00000230: 8362 6bbd a3c5 57bb 0683 e2bc 8da0 bd3d
00000240: 1a0c 52bd e014 e03c 1720 033d 6351 debd
00000250: 83a5 66bd 1867 063e 6b72 67bd 690f 54bd
00000260: 5f27 6bbd f1f8 803d ba16 d1bc 0bd9 373d
00000270: 09c5 a4bd 3796 1fbc 0eea 923c 1bda 84bc
00000280: acd2 763d 0181 42bb 5380 9f3c 86e1 dfbc
00000290: 61e4 cebd 96cc cb3d 325f 2dbd 9907 933d
000002a0: 72b0 a03d 5da5 303d 719e 56bd afd8 e1bc
000002b0: 5def d3bc ef53 b03c bc2d 55bd c25d c23c
000002c0: 9d0f 6dbd 92ae edbc d937 963d 453d 2dbd
000002d0: 73c9 03be c234 4bbd 4c7a 2bbd 2517 84bd
000002e0: 7cea 7f3d ca4c 5e3d f35f 88bc 335e c63c
000002f0: 209b 0fbd be0a 2abd 9b1e 1bbc 9a92 d53c
00000300: 9e86 b93d 49a3 cc3d 0142 b2bd 449f b33d
00000310: 561c 37bd 17bc 03bd ef97 403d 84de 8a3d
00000320: 42ad 82bc 334b 95bd 6f32 fbbc b656 d13d
00000330: 38c4 38bd b0e2 d5bc 08d2 74bd 7035 6c3c
00000340: 229e f33c 4fdb 04bd 6cec 623d 7b65 fa3c
00000350: e9fe 063e b77f 953d 56af 033d 79cb 933b
00000360: 220d 39be 0381 26bd 404c 263d c5ec 3f3c
00000370: bc85 b83d 949d b13b 1f2e d1bd 7ad0 9d3d
00000380: 9751 263d 606c edbc 6252 3c3d 83f8 4c3b
00000390: 739b cb3c 1d82 be3c 442b 773d a8cd 64bd
000003a0: d3d4 973d 36b5 603a 8eaa 99bd c056 1c3e
000003b0: f372 34bd 1ce7 17bd e1a3 a4bd a298 873d
000003c0: 01c3 05be e630 113d c656 23bb d544 ce3b
000003d0: 93b6 91bd 0a47 c8bc 65a7 3bbc 5c00 ad3c
000003e0: 4d30 7ebd a5f0 953d 28d8 d2bc efc9 b13d
000003f0: 7c39 c33c 0254 76bc b3fa b53d 984e 98bd

mean.bias f4 [6]
-0.036398236 -0.029187765 -0.013982849 0.2158922 0.10233574 0.01578934
00000000: 5116 15bd 2e1b efbc 5218 65bc d812 5d3e
00000010: 6795 d13d a558 813c

exp_avg f4 [6]
0.00059390307 -2.4771798e-05 -0.0006949812 0.00042894972 -3.365219e-05 0.0011348146
00000000: 29b0 1b3a 08cd cfb7 662f 36ba a8e4 e039
00000010: c425 0db8 0fbe 943a

exp_avg_sq f4 [6]
1.4847659e-05 1.4200717e-05 1.4399424e-05 1.4068549e-05 1.44742235e-05 1.42582585e-05
00000000: 361a 7937 9d3f 6e37 0e95 7137 f507 6c37
00000010: 51d6 7237 c136 6f37

exp_avg f4 [256, 17]
-7.2648454e-06 1.0710626e-05 -0.00015254831 3.6458187e-05 -0.00010093459 -9.937063e-05 8.022829e-05 9.249324e-05
-1.0604706e-05 0.00015002041 -0.0003866354 0.00020996937 -0.0004404559 0.000501279 -0.00068029587 0.0021126508
-0.0006395009 1.4344479e-05 -1.380955e-05 -1.0999845e-05 4.5418046e-06 3.92156e-06 -6.299561e-05 7.752344e-06
-2.244524e-05 -0.0002531538 4.064383e-05 0.00021379322 -9.6154494e-05 9.925716e-05 4.1626554e-05 -0.00046674281
4.696736e-05 -0.0003075842 1.3223222e-05 3.9109116e-05 5.61095e-05 -2.8915061e-05 2.093371e-05 -2.3978957e-06
-8.642935e-05 -1.6690921e-05 -0.0002939012 -0.00013775064 0.00040603973 -0.0017707925 0.00018775699 5.1228613e-05
-0.00019621542 -0.0003202248 0.0019516948 -1.1420171e-05 2.7853488e-05 -2.5810858e-05 -8.06673e-06 1.8434607e-06
6.2339413e-06 1.2141143e-05 3.160913e-05 -7.1862155e-06 3.2986885e-05 -8.34774e-05 -0.00051158224 -5.327331e-06
9.567617e-05 -0.00047550147 0.0009919974 -0.00010559834 1.662415e-05 2.3307291e-05 4.8914746e-05 -2.324111e-06
2.5057652e-05 -2.2474178e-05 -6.333787e-05 -2.9435445e-05 -0.00013094021 -9.923375e-05 0.00021981614 -0.00018553912
0.0002536774 0.00019009631 0.0008743288 -0.0011795368 -1.43701445e-05 -2.6245398e-06 2.28047e-05 -2.889582e-05
-1.5800451e-05 -1.8097464e-05 -9.097129e-06 4.0967476e-05 2.7879601e-05 4.402917e-05 7.715602e-05 -5.5319953e-05
-0.00039208628 -0.00022326842 -0.0002314935 -0.00043750092 0.0010221127 -7.425072e-05 5.6813205e-06 1.4097818e-05
0.00015420644 -0.000112469446 3.4054545e-05 0.00015195167 5.64097e-06 -6.35739e-05 0.0008113486 -0.00018297708
0.0003846096 5.548341e-05 -0.00016685193 -0.0012771145 -7.501852e-05 -0.0015949068 0.0021652314 1.892764e-06
-4.2421398e-05 2.6379963e-05 -3.5107987e-05 -3.4959157e-05 6.745522e-05 9.4550844e-05 -6.770217e-06 0.0008772924
0.00010040334 7.957097e-05 0.00074686063 0.00038411198 -0.00034694033 0.00057615526 -0.0013753487 -0.00042206558
-8.802269e-07 2.6791936e-06 2.0238296e-05 3.4949832e-07 1.0040069e-07 1.0202164e-05 -1.08662e-05 -1.3846584e-05
-3.6787853e-05 -3.8186172e-05 1.5401956e-05 -0.00020565481 7.522566e-05 7.007871e-05 -0.00014320982 -0.0006352339
0.0005492517 6.9839075e-06 -4.540908e-05 -1.2966317e-05 2.1612426e-05 -5.759868e-06 -5.1376974e-05 -2.7750566e-05
-4.08283e-06 -0.00033028377 0.00010647192 -7.012736e-05 -8.880207e-05 0.0005094982 9.0811845e-05 0.0003035541
-0.00051319477 -2.6290061e-05 -1.6710308e-05 4.798545e-05 -0.000109101864 2.4158617e-05 -5.0869927e-05 -4.552176e-05
0.000104291015 4.2413332e-05 0.00014839922 0.00013814229 -9.1726826e-05 0.00052005076 0.0005258035 0.0003493009
-0.00014625903 0.0013608861 -0.003409685 -2.9912314e-06 9.251386e-06 -3.3908087e-05 -1.8499955e-05 6.758979e-06
-3.4927376e-05 2.310235e-05 1.6132939e-05 -8.0924714e-05 6.95363e-05 -2.5721125e-05 0.0009084353 -0.0009761165
0.00045415873 -0.00012984073 0.000835717 -0.00076435297 8.67302e-06 4.713713e-06 4.1992298e-05 1.2758919e-06
3.061497e-05 -3.873962e-06 -1.597412e-05 -2.1521815e-05 8.876659e-05 -7.479205e-05 0.00017734256 0.0004931428
0.00015097791 0.00056887994 0.00044869352 -0.001007438 0.00078869605 -1.1223486e-06 2.4404852e-05 1.2840162e-05
-2.3643901e-05 1.1103318e-05 -2.297614e-05 -3.706158e-05 -5.552211e-08 -0.00054685917 -2.0060379e-05 1.7551272e-05
-0.0009944661 -0.00069369515 -0.0010376131 -0.0008334438 0.0010361971 0.000773593 -1.2751841e-06 1.9279614e-05
-8.019214e-06 -1.6877446e-05 9.3723465e-06 -1.4538631e-05 -4.2694057e-05 2.0310075e-05 -0.0003655837 -8.0731144e-05
-8.7350774e-05 -0.0005550155 -0.0009903923 -0.00043585052 -0.0004955033 0.0009853874 0.0008987495 9.082801e-06
00000000: 8cc4 f3b6 cab1 3337 60f5 1fb9 aeea 1838
00000010: d8ac d3b8 3365 d0b8 3c40 a838 eef8 c138
00000020: deea 31b7 cc4e 1d39 53b5 cab9 392b 5c39
00000030: fdec e6b9 4468 033a e255 32ba 6674 0a3b
00000040: 2ea4 27ba 11a9 7037 91af 67b7 f98b 38b7
00000050: ce65 9836 f295 8336 831c 84b8 1010 0237
00000060: c948 bcb7 bab9 84b9 fb78 2a38 ae2d 6039
00000070: 8da6 c9b8 4828 d038 2c98 2e38 29b5 f4b9
00000080: d2fe 4438 4143 a1b9 4ed9 5d37 1809 2438
00000090: 1e57 6b38 9f8e f2b7 cd9a af37 89eb 20b6
000000a0: 6741 b5b8 7b03 8cb7 c016 9ab9 2871 10b9
000000b0: bbe1 d439 f019 e8ba a2e0 4439 4ede 5638
000000c0: 2dbf 4db9 d8e3 a7b9 03d0 ff3a 4399 3fb7
000000d0: e9a6 e937 6584 d8b7 5756 07b7 d46c f735
000000e0: 262d d136 d0b1 4b37 0b94 0438 1f21 f1b6
000000f0: 665b 0a38 9610 afb8 b41b 06ba 6dc1 b2b6
00000100: c1a5 c838 ba4c f9b9 e905 823a ad74 ddb8
00000110: 1774 8b37 0784 c337 cf29 4d38 ecf7 1bb6
00000120: e632 d237 ee86 bcb7 43d4 84b8 23ec f6b7
00000130: ff4c 09b9 b71b d0b8 727e 6639 478d 42b9
00000140: 0100 8539 9754 4739 3633 653a b09a 9aba
00000150: 4d17 71b7 4021 30b6 b84c bf37 4d65 f2b7
00000160: 368b 84b7 02d0 97b7 df9f 18b7 7ed4 2b38
00000170: fdde e937 f6ab 3838 d3ce a138 5907 68b8
00000180: ee90 cdb9 291d 6ab9 10bd 72b9 6160 e5b9
00000190: 69f8 853a 0db7 9bb8 2ca2 be36 ab85 6c37
000001a0: 7ab2 2139 93dd ebb8 cad5 0e38 3755 1f39
000001b0: 9047 bd36 fa52 85b8 afb0 543a 89dd 3fb9
000001c0: 6da5 c939 dcb6 6838 f9f4 2eb9 da64 a7ba
000001d0: 4353 9db8 310c d1ba 8ee6 0d3b e00a fe35
000001e0: a1ed 31b8 8a4a dd37 ea40 13b8 1ca1 12b8
000001f0: bf76 8d38 9949 c638 b92b e3b6 19fa 653a
00000200: a28f d238 57df a638 f8c8 433a a362 c939
00000210: 8be5 b5b9 2009 173a 0b45 b4ba af48 ddb9
00000220: bb48 6cb5 32cc 3336 69c5 a937 afa2 bb34
00000230: dd9b d733 f629 2b37 f94d 36b7 a04e 68b7
00000240: a84c 1ab8 172a 20b8 7333 8137 0ba5 57b9
00000250: 78c2 9d38 39f7 9238 982a 16b9 d385 26ba
00000260: a8fb 0f3a 4f57 ea36 a175 3eb8 e889 59b7
00000270: 554c b537 e444 c1b6 9b7d 57b8 e3c9 e8b7
00000280: 3eff 88b6 f029 adb9 ad49 df38 5711 93b8
00000290: 403b bab8 d88f 053a 3d72 be38 5726 9f39
000002a0: eb87 06ba 7a89 dcb7 1d2d 8cb7 fc43 4938
000002b0: 9ecd e4b8 3ca8 ca37 2b5d 55b8 9eee 3eb8
000002c0: d0b6 da38 f8e4 3138 9d9b 1b39 4ada 1039
000002d0: 775d c0b8 0454 083a 13d6 093a 6022 b739
000002e0: 1c5d 19b9 c35f b23a 0675 5fbb f7bc 48b6
000002f0: 6636 1b37 8838 0eb8 5a30 9bb7 30cb e236
00000300: fc7e 12b8 ebcb c137 3955 8737 20b6 a9b8
00000310: 04d4 9138 b2c3 d7b7 1024 6e3a 12e2 7fba
00000320: 271c ee39 db25 08b9 0514 5b3a dc5e 48ba
00000330: 5682 1137 7d2a 9e36 e320 3038 503f ab35
00000340: 9368 0038 15fd 81b6 2900 86b7 bf89 b4b7
00000350: 3328 ba38 add9 9cb8 08f5 3939 4146 013a
00000360: d34f 1e39 e320 153a a03e eb39 030c 84ba
00000370: 7fc0 4e3a 9ba3 96b5 05b9 cc37 136c 5737
00000380: e456 c6b7 6348 3a37 e3bc c0b7 9272 1bb8
00000390: 3577 6eb3 195b 0fba 5647 a8b7 123b 9337
000003a0: bf58 82ba 18d9 35ba 8500 88ba 777b 5aba
000003b0: 01d1 873a f3ca 4a3a fe26 abb5 a8ba a137
000003c0: 438a 06b7 0a94 8db7 ec3d 1d37 f2ea 73b7
000003d0: 6512 33b8 8e5f aa37 d0ab bfb9 344e a9b8
000003e0: 1730 b7b8 767e 11ba 0dd0 81ba de82 e4b9
000003f0: aae4 01ba 1d28 813a 0f9a 6b3a 5562 1837

exp_avg_sq f4 [256, 17]
3.9356114e-09 4.345829e-08 1.1351096e-07 4.534198e-08 4.4683663e-08 1.8922563e-07 7.005747e-08 6.722294e-08
6.887163e-06 3.991017e-07 1.9651293e-06 6.833632e-05 1.04334e-05 2.9841643e-05 2.1472893e-05 4.0916446e-05
6.0132203e-05 1.8313697e-09 1.8840971e-08 4.384902e-08 2.3550145e-08 1.5920147e-08 7.2505706e-08 7.072614e-08
2.680868e-08 5.0202516e-06 2.1314796e-07 7.4599217e-07 3.1028383e-05 6.386296e-06 1.5408337e-05 8.637399e-06
1.6412714e-05 3.2234348e-05 2.7761036e-09 2.2796467e-08 7.553168e-08 2.7252094e-08 3.641758e-08 7.622728e-08
1.18928185e-07 5.7006318e-08 6.0494813e-06 2.779002e-07 1.4512092e-06 4.4420012e-05 9.087924e-06 1.660583e-05
1.9658064e-05 3.895133e-05 4.1267373e-05 2.2155262e-09 1.6270779e-08 6.097161e-08 2.1057021e-08 2.3916037e-08
9.274381e-08 2.611802e-08 3.672701e-08 3.0954232e-06 1.7390059e-07 7.76623e-07 2.4311841e-05 5.770844e-06
1.0947292e-05 1.26753785e-05 2.8536922e-05 2.1595606e-05 2.5115707e-09 1.7412093e-08 7.60562e-08 1.5290558e-08
5.5959255e-08 2.5319954e-08 9.289455e-08 8.510599e-08 2.9611108e-06 2.3374474e-07 1.1988831e-06 3.285331e-05
9.910317e-06 6.6332477e-06 2.6198624e-05 5.8550555e-05 2.7986864e-05 6.2456906e-10 6.0409735e-09 9.317147e-09
4.701179e-09 5.6907825e-09 2.0711042e-08 8.0870874e-09 8.872018e-09 5.344315e-07 6.879172e-08 2.9478423e-07
1.0417397e-05 1.4778908e-06 4.3027167e-06 3.2205726e-06 6.523914e-06 6.9462935e-06 4.5352664e-09 3.677273e-08
1.6731482e-07 7.966688e-08 3.5825906e-08 2.7346738e-07 8.7929465e-08 7.275889e-08 1.14308405e-05 5.74025e-07
2.0546886e-06 6.964828e-05 1.1754404e-05 3.2214106e-05 2.1535172e-05 4.683814e-05 6.121348e-05 2.8685225e-09
2.5164564e-08 1.12168856e-07 4.9158725e-08 2.827074e-08 1.4980924e-07 6.7389045e-08 5.1552494e-08 7.847051e-06
3.5961355e-07 7.7869385e-07 3.1251835e-05 8.8558745e-06 1.9925597e-05 1.3100008e-05 3.071157e-05 2.6775524e-05
1.5510667e-09 1.2916808e-08 2.7180064e-08 9.98313e-09 2.2192012e-08 4.8794632e-08 2.0514134e-08 2.9111208e-08
1.378297e-06 1.259799e-07 7.3372536e-07 2.5788313e-05 4.565572e-06 6.0535326e-06 9.940276e-06 1.993222e-05
2.1859185e-05 1.7415823e-09 1.7508649e-08 7.204391e-08 3.5817155e-08 2.3272115e-08 7.670972e-08 6.7647925e-08
5.637611e-08 6.5105355e-06 2.88428e-07 7.324464e-07 3.8002727e-05 7.1853356e-06 9.159025e-06 1.9044002e-05
2.5822259e-05 1.1887733e-05 1.9660575e-09 2.0250996e-08 4.462667e-08 1.8343208e-08 1.723183e-08 8.125473e-08
4.880063e-08 2.2542215e-08 3.4982777e-06 1.7191817e-07 8.98544e-07 2.6926764e-05 5.7047105e-06 1.3963504e-05
8.134242e-06 1.6838896e-05 3.3880668e-05 1.1913317e-09 1.030891e-08 2.5192833e-08 7.3293416e-09 1.7629493e-08
3.0271448e-08 1.9137131e-08 2.7506406e-08 1.0306238e-06 1.1544256e-07 5.296633e-07 1.7623131e-05 3.981274e-06
6.0896477e-06 9.011272e-06 2.0579791e-05 1.4362895e-05 2.4732287e-09 2.0976145e-08 7.3122834e-08 2.1706171e-08
3.5373702e-08 8.953909e-08 4.096305e-08 4.98847e-08 3.0399822e-06 2.0637958e-07 9.765604e-07 2.9908882e-05
7.442912e-06 8.79601e-06 1.5312015e-05 3.776954e-05 2.6526754e-05 1.6551939e-09 1.6710612e-08 3.9487137e-08
1.5908897e-08 1.640799e-08 4.2217234e-08 1.13459095e-07 2.1310896e-08 5.3074828e-06 1.706928e-07 8.543187e-07
2.9081342e-05 6.905446e-06 1.6864684e-05 1.0934634e-05 1.2714427e-05 3.922178e-05 1.0409911e-09 1.1312932e-08
2.4365262e-08 9.330884e-09 1.4997848e-08 1.7358385e-08 5.9445814e-08 2.30321e-08 2.6275407e-06 1.1822925e-07
5.067721e-07 1.8058428e-05 4.406979e-06 7.692864e-06 1.1770568e-05 1.5636622e-05 1.6652371e-05 1.2873669e-09
00000000: 013a 8731 e5a6 3a33 4fc3 f333 09be 4233
00000010: 35ea 3f33 f22d 4b34 8072 9633 345c 9033
00000020: 4818 e736 1f44 d634 aae0 0336 c84f 8f38
00000030: 1d0b 2f37 7154 fa37 b020 b437 b39d 2b38
00000040: 7636 7c38 98b3 fb30 bcd7 a132 8254 3c33
00000050: 514b ca32 c6c0 8832 6fb4 9b33 1be2 9733
00000060: e948 e632 a273 a836 aadd 6434 3140 4835
00000070: 7924 0238 dd49 d636 2741 8137 59e9 1037
00000080: 09ae 8937 5e33 0738 bbc5 3e31 f6d1 c332
00000090: fb33 a233 fd17 ea32 8d69 1c33 64b2 a333
000000a0: 7665 ff33 1cd7 7433 a6fc ca36 5032 9534
000000b0: 2bc7 c235 a04f 3a38 5678 1837 c04c 8b37
000000c0: 5fe7 a437 ac5f 2338 8116 2d38 f33f 1831
000000d0: d2c3 8b32 7fef 8233 e1e0 b432 ec6f cd32
000000e0: 732a c733 225a e032 c6bd 1d33 f7ba 4f36
000000f0: 6eb9 3a34 2079 5035 48f1 cb37 2ca3 c136
00000100: 43aa 3737 56a8 5437 9362 ef37 3628 b537
00000110: 0598 2c31 9991 9532 5754 a333 4b58 8332
00000120: da57 7033 2b7f d932 527d c733 83c3 b633
00000130: 7fb7 4636 44fb 7a34 4fe9 a035 f9cb 0938
00000140: 7d44 2637 2a93 de36 1ec5 db37 2e94 7538
00000150: 55c5 ea37 24ae 2b30 f790 cf31 3f11 2032
00000160: 0288 a131 a788 c331 10e8 b132 63ef 0a32
00000170: 8c6b 1832 da75 0f35 a6ba 9333 d642 9e34
00000180: 61c6 2e37 f15b c635 0e60 9036 0421 5836
00000190: ffe7 da36 3514 e936 a0d4 9b31 0bf0 1d33
000001a0: 26a7 3334 5515 ab33 00df 1933 12d1 9234
000001b0: bcd3 bc33 9f3f 9c33 16c7 3f37 b316 1a35
000001c0: 48e3 0936 2310 9238 c834 4537 a21d 0738
000001d0: 6ea6 b437 1274 4438 bd5f 8038 951f 4531
000001e0: 7629 d832 7be1 f033 9722 5333 04d8 f232
000001f0: 40db 2034 85b7 9033 916a 5d33 d4a6 0337
00000200: e910 c134 6f07 5135 6714 0338 b193 1437
00000210: e525 a737 1bc8 5b37 4cd0 0038 009c e037
00000220: 4f2d d530 b9e8 5d32 9879 e932 4582 2b32
00000230: c0a0 be32 4492 5133 0f37 b032 3910 fa32
00000240: edfd b835 1745 0734 39f5 4435 fb53 d837
00000250: f731 9936 731f cb36 29c5 2637 1e34 a737
00000260: 3e5e b737 7b5c ef30 ed65 9632 8fb6 9a33
00000270: 61d5 1933 ece7 c732 9dbb a433 d745 9133
00000280: 3022 7233 1375 da36 3ed9 9a34 559d 4435
00000290: 1e65 1f38 9019 f136 b6a9 1937 afc0 9f37
000002a0: e19c d837 6d71 4737 401b 0731 69f4 ad32
000002b0: 8bab 3f33 2491 9d32 3205 9432 437e ae33
000002c0: dc98 5133 dba2 c132 f4c3 6a36 8298 3834
000002d0: 7933 7135 c9e0 e137 176b bf36 cb44 6a37
000002e0: 4e78 0837 4141 8d37 171b 0e38 42bc a330
000002f0: 111b 3132 a067 d832 92d5 fb31 aa6f 9732
00000300: cf03 0233 ff62 a432 3a47 ec32 f753 8a35
00000310: 38e9 f733 2f2e 0e35 63d5 9337 e296 8536
00000320: ad55 cc36 1e2f 1737 c4a2 ac37 2af8 7037
00000330: 80f5 2931 082f b432 b407 9d33 6074 ba32
00000340: cced 1733 a348 c033 5aef 2f33 cf40 5633
00000350: 7f02 4c36 3099 5d34 5c12 8335 d6e4 fa37
00000360: 21be f936 9392 1337 4d72 8037 bc6a 1e38
00000370: c585 de37 f57c e330 068b 8f32 9198 2933
00000380: 09a8 8832 8df1 8c32 5752 3533 cca6 f333
00000390: 280f b732 ee16 b236 ae47 3734 5654 6535
000003a0: b5f3 f337 54b5 e736 a278 8d37 e573 3737
000003b0: 0c50 5537 1182 2438 9e12 8f30 cd5a 4232
000003c0: c74b d132 a94d 2032 9ed4 8032 7e1b 9532
000003d0: 5d51 7f33 20d8 c532 ce54 3036 38e5 fd33
000003e0: 1d09 0835 2e7c 9737 a9df 9336 9910 0137
000003f0: 347a 4537 642b 8337 b2b0 8b37 32ef b030
