saved_models/critic_ep200.pth (torch, 855857 bytes, 15 tensors)

net.0.weight f4 [256, 17]
0.22800611 0.26597166 -0.19508095 0.4411151 -0.15685616 -0.37181297 -0.096060626 0.05595039
-0.28719383 -0.023974877 -0.19889607 -0.0646428 -0.08077673 -0.070614755 0.05168516 0.06052029
-0.032826226 0.28851736 -0.4450804 0.3888678 0.11936689 0.25117627 -0.02339544 -0.3107766
-0.045025636 -0.25632265 0.14869444 0.026234886 0.13075557 0.02145259 0.044205997 0.1084419
0.2138477 0.026605273 -0.08312024 -0.72701794 0.41329777 0.46589053 0.2534762 -0.09542296
-0.2460863 -0.34792536 -0.43414304 -0.26069868 -0.25931117 -0.0325472 -0.10539351 -0.050358128
-0.017937843 -0.096021034 -0.023401873 0.7908395 -1.6091439 -0.674016 -0.711729 -0.29106414
-0.5649747 0.13106467 -0.04377605 0.35826543 0.2290114 -0.1826088 0.0011253827 -0.05601101
-0.039868932 -0.08265145 -0.007112743 -0.020821074 0.2642701 -0.36973703 -0.47410038 0.62751853
-0.12988083 -0.04024201 -0.1808577 -0.045578316 -0.22798342 -0.6858025 0.11594591 0.03735084
0.0016349247 -4.0285755e-05 0.104019895 0.049387593 -0.05117322 -0.032658774 -0.08049672 -0.5057017
0.28425166 -0.039287385 0.2009328 -0.25699687 -0.2863225 -0.2553615 0.19266194 0.18822265
0.08087032 0.14539869 0.055393323 -0.037883043 0.1018941 0.074338 0.36953872 0.07111459
0.32971174 0.35015577 0.26916227 -0.18540403 -0.38611165 0.07320165 -0.59440887 0.4280084
-0.09743354 -0.01822263 -0.002608695 0.028385753 -0.15218188 -0.12889549 -0.05809861 0.30265966
0.15204042 0.036872353 0.31957996 0.39320597 -0.031510025 -0.1404536 -0.06912186 0.05209348
0.12759429 -0.23056592 -0.025731811 -0.087612785 0.06739477 0.11040822 -0.06099897 0.041602127
-0.46903747 0.53273684 -0.5153702 0.123714186 -0.0220953 -0.21103187 0.21136782 0.23269278
-0.1287996 -0.38460127 -0.013775852 0.045648836 0.003723233 0.02623507 -0.078821294 -0.014952327
-0.014795835 0.30613533 -0.10565899 1.1748911 0.29072553 1.0130943 0.6925828 0.05460803
-0.38804236 0.022285823 -0.1007912 0.17848371 0.060812246 0.09074804 -0.1234337 -0.03709177
-0.014089877 -0.03378246 1.1840972 0.12656301 0.07579424 0.08403776 -0.34413242 -0.46704546
-0.39567518 -0.09092542 -0.550556 0.18068765 -0.075295605 0.08176809 -0.042308986 -0.0071417848
0.101720795 0.2159666 0.010403136 0.013447967 -0.7465335 -0.14073399 0.15571408 0.26755396
0.29230806 0.10032898 -0.17339753 -0.22486523 -0.1582569 0.00313929 -0.0824474 0.011972253
0.11044753 -0.028132306 0.03311965 0.022622915 -0.70396096 -0.3823571 -0.16728187 0.15466475
-0.27775237 0.10070828 -0.018278576 -0.25823364 -0.30193204 0.02615544 0.22401191 -0.17380491
-0.016284483 -0.0686839 -0.014426779 0.06251932 -0.019857878 -0.41030988 0.41153362 0.29829925
0.2488662 -0.04049813 0.27745107 -0.08788195 -0.16467194 -0.09345683 -0.17220917 -0.05137617
0.027784802 -0.015948853 0.046470847 -0.016851332 0.039327044 0.046443976 -0.036731753 -1.2396747
0.5411533 0.43096757 -0.08729918 -0.17734079 -0.5731784 -0.55056036 -0.6970529 -0.14001998
0.04706366 0.008260618 -0.058869515 0.014602801 0.027244689 -0.001751581 0.058987174 -0.35328
00000000: 6f7a 693e 702d 883e 4dc3 47be d7d9 e13e
00000010: e79e 20be 455e bebe 6fbb c4bd 3c2c 653d
00000020: 120b 93be f666 c4bc 69ab 4bbe 7263 84bd
00000030: 456e a5bd 789e 90bd d1b3 533d 20e4 773d
00000040: cb74 06bd 8cb8 933e 94e1 e3be ae19 c73e
00000050: a176 f43d 2d9a 803e cba7 bfbc 1c1e 9fbe
00000060: cd6c 38bd b93c 83be 5b43 183e 8bea d63c
00000070: cae4 053e 58bd af3c 5911 353d c916 de3d
00000080: e4fa 5a3e 4df3 d93c f23a aabd d91d 3abf
00000090: c49b d33e 3489 ee3e a2c7 813e 1d6d c3bd
000000a0: 0cfe 7bbe 4623 b2be ff47 debe 4c7a 85be
000000b0: 6fc4 84be 3650 05bd 8dd8 d7bd 5344 4ebd
000000c0: 62f2 92bc ada6 c4bd 49b5 bfbc 7574 4a3f
000000d0: 6df8 cdbf 508c 2cbf df33 36bf 5c06 95be
000000e0: 2fa2 10bf d135 063e 844e 33bd 916e b73e
000000f0: f781 6a3e cdfd 3abe 9481 933a cd6b 65bd
00000100: 9b4d 23bd 2a45 a9bd 0312 e9bb f590 aabc
00000110: 694e 873e 2c4e bdbe 49bd f2be 0ea5 203f
00000120: 7bff 04be ced4 24bd c332 39be 54b0 3abd
00000130: 7c74 69be c190 2fbf 0d75 ed3d 32fd 183d
00000140: f84a d63a 80f8 28b8 6208 d53d a54a 4a3d
00000150: 039b 51bd 35c5 05bd 77db a4bd ab75 01bf
00000160: 6f89 913e cfeb 20bd 54c1 4d3e 1895 83be
00000170: dd98 92be bebe 82be 2c49 453e 70bd 403e
00000180: 579f a53d 65e3 143e 1ce4 623d 402b 1bbd
00000190: dbad d03d 853e 983d 2e34 bd3e 87a4 913d
000001a0: facf a83e 9e47 b33e a3cf 893e 8eda 3dbe
000001b0: 6db0 c5be bfea 953d 2e2b 18bf eb23 db3e
000001c0: 3c8b c7bd a047 95bc a4f6 2abb 3d89 e83c
000001d0: 91d5 1bbe 2efd 03be cff8 6dbd 35f6 9a3e
000001e0: 7cb0 1b3e 7707 173d fc9f a33e 4b52 c93e
000001f0: a810 01bd 12d3 0fbe c38f 8dbd f95f 553d
00000200: 14a8 023e 7919 6cbe 85cb d2bc 556e b3bd
00000210: 4506 8a3d b41d e23d 0eda 79bd fe66 2a3d
00000220: ae25 f0be 7161 083f 4def 03bf dd5d fd3d
00000230: 3401 b5bc bd18 58be ce70 583e 0447 6e3e
00000240: 0be4 03be 75ea c4be 1cb4 61bc 46fa 3a3d
00000250: 7c01 743b eeea d63c 0f6d a1bd 9bfa 74bc
00000260: 3b6a 72bc c5bd 9c3e be63 d8bd d562 963f
00000270: fad9 943e 13ad 813f 1b4d 313f abac 5f3d
00000280: 7dad c6be c290 b63c 9e6b cebd 6fc4 363e
00000290: 4316 793d 1cda b93d cfca fcbd 8aed 17bd
000002a0: 3ad9 66bc 7a5f 0abd 7f90 973f bc99 013e
000002b0: 033a 9b3d fd1b ac3d 2032 b0be 9520 efbe
000002c0: f095 cabe 1b37 babd 3df1 0cbf 2f06 393e
000002d0: 9534 9abd 0776 a73d 304c 2dbd a205 eabb
000002e0: fe52 d03d 5926 5d3e ea71 2a3c dd54 5c3c
000002f0: d21c 3fbf 921c 10be 8373 1f3e d5fc 883e
00000300: 67a9 953e 4879 cd3d 1f8f 31be 1243 66be
00000310: 190e 22be 8cbc 4d3b 2fda a8bd 4527 443c
00000320: 5132 e23d b975 e6bc 78a8 073d b153 b93c
00000330: c936 34bf 4fc4 c3be f04b 2bbe 7060 1e3e
00000340: 8f35 8ebe 2540 ce3d f4bc 95bc 3337 84be
00000350: d696 9abe ef43 d63c 6163 653e eaf9 31be
00000360: 0967 85bc 25aa 8cbd 4c5e 6cbc 210a 803d
00000370: fdac a2bc 2314 d2be 89b4 d23e aeba 983e
00000380: c8d6 7e3e 5ee1 25bd 110e 8e3e 74fb b3bd
00000390: c39f 28be 4b66 bfbd 9a57 30be d26f 52bd
000003a0: f49c e33c 2ba7 82bc 3758 3e3d ce0b 8abc
000003b0: 6515 213d 0a3c 3e3d 0974 16bd a9ad 9ebf
000003c0: 0689 0a3f c8a7 dc3e eac9 b2bd d398 35be
000003d0: d2bb 12bf 86f1 0cbf 0f72 32bf 6661 0fbe
000003e0: d3c5 403d 8b57 073c 2921 71bd 9640 6f3c
000003f0: 4130 df3c 4e95 e5ba 899c 713d 1ee1 b4be

net.0.bias f4 [256]
0.16759796 -0.9650627 -0.3325648 -0.004558241 0.25907445 0.5227578 0.14104448 0.52103996
0.641685 -0.36183172 -0.6511686 -0.7482608 -0.7425526 0.7279671 0.23221207 -0.3269325
-0.71692085 0.024627429 -0.02082415 0.82657856 -0.3645764 -0.7731829 0.6437 -0.7469606
-0.08039795 -0.24486768 -0.4590094 0.3402805 0.015441843 -0.7451343 0.4698879 0.019385522
-0.264307 0.030824795 0.956908 0.63579625 0.20179002 -0.7503169 -0.697753 -0.34242517
-0.36396444 -0.7859561 0.7567336 0.24693708 -0.4742012 0.88973176 0.13927084 0.79720056
0.38789877 0.93554497 0.6637803 0.665137 0.8833222 -0.80326366 0.9537866 0.6057588
0.17667127 0.6525757 0.343955 0.9874062 -0.7721029 -0.025322618 0.59528756 0.64289665
0.45903897 -0.31242245 -0.956438 -0.23703891 -0.550146 -0.67124605 0.5579821 0.19580281
-0.97689253 -0.79936135 -0.43887347 -0.342343 -0.66633016 0.51281446 0.820966 -0.8650144
-0.34991893 -0.115164846 0.9055767 -0.6342405 -0.28659248 -0.18954262 0.10254666 -0.49595943
0.18224221 0.6056439 -0.6767444 -0.3340957 -0.22319308 0.7709808 0.68943125 0.3770769
-0.84361607 -0.7419046 0.3345866 0.85022545 0.08855324 0.67489415 -0.44380295 -0.044487104
0.5193609 -0.69830596 0.42980558 0.40656313 0.5286489 -0.6776666 -0.7486284 -0.05666565
0.731135 -0.06095064 0.87768567 0.67308116 0.47165647 -0.2693011 1.1086569 0.7121439
0.063569285 -0.58929014 -0.60877264 0.8963307 0.01682149 -0.22869855 -0.11732369 -0.015623218
0.6157429 0.5924555 0.1405531 -0.16723731 0.15870403 -0.7449165 -0.7927462 -0.6468393
0.9422276 0.8810839 -0.805373 -0.29666632 0.12067427 0.71123093 0.50064254 -0.07367275
0.7932704 -0.5844727 -0.041245867 0.78623396 0.8838023 -0.24717748 0.061114993 -0.87634605
-0.8230097 0.075912826 -0.73547554 0.7108671 0.025884252 -0.6186709 -0.92652494 0.93000823
0.7439158 -0.23155595 -0.54433924 0.55262685 0.0043915324 0.6359587 -0.4746832 0.5216871
-0.7841947 0.35387975 0.04300726 -0.89611745 0.46832448 0.17363787 0.18994148 -0.3749863
0.9363348 -0.67121434 0.8764218 0.7039706 -0.8259875 0.20595804 0.9201366 -0.19208552
-0.51379186 0.23037185 0.5789932 -0.7589446 1.0630553 -0.8207034 0.219404 -0.22904876
0.62211746 0.8120921 0.8481751 0.780122 0.20514947 -0.28689468 -0.23497386 0.70189536
0.0279631 -0.8506015 0.26895043 0.759416 0.45077512 0.86480355 -0.16163677 0.81436527
0.01754131 0.7188152 -0.5920592 -0.8311493 -0.70082724 0.48448822 0.07867597 0.7658397
0.4914192 0.67993677 -0.3307659 0.06259402 0.6516896 0.52809435 -0.8493654 0.8546772
0.9287014 -0.3339378 0.087585755 -0.66029686 -0.24696106 -0.73933476 -0.059398055 0.23192616
0.68754816 0.056961115 -0.6052469 -0.7323651 0.86882246 -0.48721677 -0.73485285 -0.7405178
-0.3274579 -0.060494494 0.06352683 -0.6051181 0.8698036 0.07115507 -0.5616583 -0.94037974
-0.59569085 0.63155377 -0.4795079 -0.534123 0.5131866 0.056861304 0.82779014 -0.08969232
00000000: cd9e 2b3e 590e 77bf ef45 aabe 4c5d 95bb
00000010: 68a5 843e 75d3 053f f76d 103e e062 053f
00000020: 7845 243f 0242 b9be fcb2 26bf 058e 3fbf
00000030: ed17 3ebf 0d5c 3a3f 00c9 6d3e b263 a7be
00000040: 2088 37bf 76bf c93c 6897 aabc a79a 533f
00000050: c2a9 babe 51ef 45bf 86c9 243f cf38 3fbf
00000060: aea7 a4bd 98be 7abe 4803 ebbe 3f39 ae3e
00000070: c9ff 7c3c 1fc1 3ebf 2695 f03e 63ce 9e3c
00000080: 3f53 87be 4884 fc3c ecf7 743f 8bc3 223f
00000090: 0ba2 4e3e c514 40bf f19f 32bf 5a52 afbe
000000a0: 8c59 babe 6b34 49bf 4bb9 413f 13dd 7c3e
000000b0: 80ca f2be 76c5 633f 049d 0e3e 5615 4c3f
000000c0: ab9a c63e e07f 6f3f 81ed 293f 6b46 2a3f
000000d0: 6721 623f b0a2 4dbf 5c2b 743f 0213 1b3f
000000e0: 50e9 343e 330f 273f df1a b03e a7c6 7c3f
000000f0: 89a8 45bf 6171 cfbc c464 183f e094 243f
00000100: 2807 eb3e d6f5 9fbe 1fd9 74bf 54ba 72be
00000110: 5ed6 0cbf c8d6 2bbf ead7 0e3f 8880 483e
00000120: a115 7abf f2a2 4cbf 06b4 e0be 9547 afbe
00000130: 9d94 2abf cf47 033f d42a 523f 9571 5dbf
00000140: 9328 b3be 8cdb ebbd e0d3 673f 965d 22bf
00000150: 40bc 92be 7617 42be fc03 d23d 65ee fdbe
00000160: b49d 3a3e 7b0b 1b3f 1f3f 2dbf 970e abbe
00000170: ba8c 64be ff5e 453f 917e 303f 3910 c13e
00000180: 39f7 57bf 76ed 3dbf ef4e ab3e 60a8 593f
00000190: 675b b53d ddc5 2c3f 243a e3be 1c38 36bd
000001a0: d6f4 043f 2ec4 32bf 7a0f dc3e 0b29 d03e
000001b0: 8955 073f 8f7b 2dbf 1ca6 3fbf 3e1a 68bd
000001c0: aa2b 3b3f 61a7 79bd 02b0 603f 0c4f 2c3f
000001d0: f57c f13e d5e1 89be 78e8 8d3f 104f 363f
000001e0: 9d30 823d b8db 16bf 86d8 1bbf ee75 653f
000001f0: 39cd 893c f42f 6abe 6747 f0bd 87f8 7fbc
00000200: 54a1 1d3f 2aab 173f 27ed 0f3e 4240 2bbe
00000210: 4f83 223e d9b2 3ebf 6af1 4abf 4397 25bf
00000220: d435 713f b78e 613f ed2c 4ebf a6e4 97be
00000230: 1224 f73d 3b13 363f 1c2a 003f bde1 96bd
00000240: c513 4b3f 01a0 15bf 6df1 28bd a146 493f
00000250: de40 623f 181c 7dbe b753 7a3d 3758 60bf
00000260: c4b0 52bf 2f78 9b3d 2048 3cbf 63fb 353f
00000270: 360b d43c 3761 1ebf bd30 6dbf 0515 6e3f
00000280: 4471 3e3f 011d 6dbe d159 0bbf f478 0d3f
00000290: d8e6 8f3b 30ce 223f ad09 f3be 498d 053f
000002a0: fcc0 48bf ba2f b53e 6128 303d f467 65bf
000002b0: 3ac8 ef3e 20ce 313e 0580 423e 34fe bfbe
000002c0: a3b3 6f3f b4d4 2bbf 2e5d 603f 6b37 343f
000002d0: eb73 53bf aae6 523e 128e 6b3f 11b2 44be
000002e0: dd87 03bf 99e6 6b3e e638 143f 314a 42bf
000002f0: 3212 883f 9e19 52bf 71ab 603e c28b 6abe
00000300: 1743 1f3f 45e5 4f3f 0122 593f 13b6 473f
00000310: b412 523e dce3 92be fd9c 70be 6aaf 333f
00000320: df12 e53c 05c1 59bf dfb3 893e 1669 423f
00000330: ffcb e63e c463 5d3f 1c84 25be 3e7a 503f
00000340: cbb2 8f3c 4604 383f 3191 17bf 33c6 54bf
00000350: 6a69 33bf d70e f83e de20 a13d 120e 443f
00000360: 4c9b fb3e 5610 2e3f 265a a9be 4b31 803d
00000370: 21d5 263f 3131 073f 0370 59bf 20cc 5a3f
00000380: 60bf 6d3f e5f9 aabe 2960 b33d 3709 29bf
00000390: 5ce3 7cbe 0b45 3dbf 604b 73bd 0d7e 6d3e
000003a0: 2803 303f 0f50 693d 76f1 1abf 477c 3bbf
000003b0: 266b 5e3f 7a74 f9be 511f 3cbf 9392 3dbf
000003c0: 90a8 a7be 13c9 77bd 5b1a 823d 05e9 1abf
000003d0: 73ab 5e3f c0b9 913d d7c8 0fbf babc 70bf
000003e0: 327f 18bf 82ad 213f 0f82 f5be 49bc 08bf
000003f0: 3260 033f 66e7 683d 0eea 533f 9bb0 b7bd

net.2.weight f4 [256, 256]
-0.022572024 0.031685475 -0.03088992 -0.048340097 0.021308636 0.009975402 0.031122707 0.045870725
0.005895213 0.035331454 -0.0043142363 -0.06288316 -0.041159637 -0.051276956 0.022303756 -0.049619738
-0.046736926 -0.013556672 -0.039472487 0.026581695 0.03637975 -0.07362788 -0.012274163 0.0009498258
0.02300342 -0.04518037 -0.06200327 -0.017791703 -0.0043064835 0.007820762 -0.049255185 0.050760694
0.0064225676 -0.043871492 -0.07960069 -0.050804768 -0.029289348 0.0351509 -0.0040551946 -0.05493517
-0.06260904 -0.006975705 -0.07510014 -0.046631183 -0.021606578 -0.045406975 0.01887808 -0.054568727
0.023836607 -0.0031972588 0.007828488 0.003879652 0.030169869 0.048806228 0.04975782 -0.09769361
0.0071932212 0.026507977 -0.08173844 -0.010741894 0.024900526 0.01611569 -0.044698846 -0.06914043
-0.070233464 0.021053871 -0.0386833 -0.068941094 -0.06638583 -0.050892808 -0.051865272 -0.011432802
-0.06455783 -0.01651196 -0.030762115 -0.035353895 -0.02449267 -0.04215941 0.010692277 -0.038758695
-0.06649188 0.0074382047 -0.08390997 -0.027719462 -0.0627066 -0.033857334 0.013287047 -0.033651665
0.022903422 -0.061550163 -0.009113558 0.03775813 0.034791075 -0.009544282 -0.06480784 -0.08126712
-0.050206628 -0.024890212 0.021101786 -0.06842422 -0.032730956 -0.04336692 0.03301901 -0.049547084
-0.045390993 0.03761228 -0.016426146 -0.058655467 -0.015790332 -0.045108113 -0.06072538 -0.06310396
0.001985483 -0.0025996168 -0.064892605 -0.039328057 0.037875947 -0.028505025 0.028283985 -0.030034358
-0.0055932207 -0.060815327 -0.044503152 -0.03172458 0.04580481 -0.09359059 -0.063963465 -0.050209485
-0.020003935 -0.029244253 -0.06995236 -0.0100675095 -0.09301136 0.008872538 -0.029256994 0.038611956
0.02625141 -0.022555316 -0.045747634 -0.06312566 0.004961857 0.012723432 -0.05994106 0.0054692524
-0.038171567 0.034743685 0.048163544 -0.08255629 -0.061548002 -0.028296122 -0.06437566 0.012588051
-0.025642952 -0.042608187 -0.055637438 0.028059185 -0.03298964 0.007926131 -0.010023847 0.02762833
-0.053533494 -0.043373864 -0.019418243 -0.015196872 -0.0014216478 0.008379333 0.048956327 -0.06610516
-0.0034604324 -0.04352932 0.006122556 -0.030377941 -0.0345778 -0.045537617 0.0040754867 0.024107892
0.03533527 0.007597208 -0.009282473 -0.037563156 -0.015370049 -0.0680493 -0.039828613 -0.0071777
-0.0016083792 -0.041050363 -0.03380856 0.009243979 -0.027713133 -0.0014363269 -0.015131625 -0.008985618
-0.024923703 -0.012354413 0.015606325 -0.05210487 0.011520114 0.026291762 -0.07583322 -0.06873987
-0.044384945 -0.06228695 0.024138378 -0.047007598 0.0042844694 0.004411475 0.009631047 -0.06240803
-0.031689055 -0.0035569246 0.008182827 -0.032300808 0.035668027 0.0224491 -0.051972657 -0.016282942
0.023783991 0.0016578777 -0.023394391 -0.0020870853 -0.06633364 -0.007559744 -0.02383265 0.039662015
-0.061918538 0.00055537827 -0.028908981 -0.041208275 -0.037437793 -0.03487003 -0.02021928 -0.029799946
-0.022455197 -0.048227657 -0.006424313 0.028911654 -0.016087072 -0.04446114 0.045136936 -0.029256146
-0.02580068 -0.05585187 0.0068479916 0.046468038 0.0045724497 -0.0039610635 -0.063749984 -0.045882195
-0.071813084 0.024802612 -0.02422719 0.028826289 -0.054275777 -0.011637517 -0.023322001 -0.011299622
00000000: f7e8 b8bc a1c8 013d dc0c fdbc 4400 46bd
00000010: 738f ae3c de6f 233c 0cf5 fe3c f1e2 3b3d
00000020: a22c c13b b7b7 103d 705e 8dbb e3c8 80bd
00000030: 0297 28bd c907 52bd 5eb6 b63c 113e 4bbd
00000040: 386f 3fbd ce1c 5ebc e7ad 21bd dbc1 d93c
00000050: ef02 153d 37ca 96bd 9219 49bc bbfd 783a
00000060: ab71 bc3c 0d0f 39bd 24f7 7dbd e8bf 91bc
00000070: 671d 8dbb a722 003c cebf 49bd 72ea 4f3d
00000080: 6774 d23b 98b2 33bd b005 a3bd a918 50bd
00000090: 37f0 efbc 64fa 0f3d 70e1 84bb b303 61bd
000000a0: 2b39 80bd 7494 e4bb 1ace 99bd 5700 3fbd
000000b0: 4700 b1bc aafc 39bd 34a6 9a3c 7583 5fbd
000000c0: fd44 c33c 1a89 51bb 0f43 003c c241 7e3b
000000d0: cd26 f73c 0ae9 473d dbce 4b3d 9613 c8bd
000000e0: 1db5 eb3b 4227 d93c 7c66 a7bd c5fe 2fbc
000000f0: 30fc cb3c 0d05 843c 2316 37bd 7f99 8dbd
00000100: 90d6 8fbd 2b79 ac3c 6172 1ebd fd30 8dbd
00000110: 4bf5 87bd fa74 50bd ae70 54bd a650 3bbc
00000120: e536 84bd 1744 87bc d500 fcbc 3fcf 10bd
00000130: daa4 c8bc 58af 2cbd a92e 2f3c 70c1 1ebd
00000140: e52c 88bd 2fbc f33b fed8 abbd ed13 e3bc
00000150: 516c 80bd fdad 0abd eab1 593c 54d6 09bd
00000160: f59f bb3c 061c 7cbd 0851 15bc 45a8 1a3d
00000170: 1681 0e3d 9f5f 1cbc f9b9 84bd 606f a6bd
00000180: 77a5 4dbd 8fe6 cbbc a7dd ac3c ff21 8cbd
00000190: e510 06bd 83a1 31bd f13e 073d e2f1 4abd
000001a0: e8eb 39bd 560f 1a3d 2090 86bc b740 70bd
000001b0: ba5a 81bc 49c3 38bd 2dbb 78bd a63c 81bd
000001c0: e11e 023b 555e 2abb 6ae6 84bd 7516 21bd
000001d0: cf23 1b3d 5f83 e9bc d1b3 e73c 9d0a f6bc
000001e0: 5647 b7bb 7e19 79bd f048 36bd a2f1 01bd
000001f0: d39d 3b3d 6cac bfbd 47ff 82bd 76a8 4dbd
00000200: 4bdf a3bc a591 efbc 2f43 8fbd 32f2 24bc
00000210: bd7c bebd 1f5e 113c 5dac efbc 9227 1e3d
00000220: 320d d73c edc5 b8bc df61 3bbd 0748 81bd
00000230: 1397 a23b f175 503c c284 75bd 6a37 b33b
00000240: ca59 1cbd 654f 0e3d 2347 453d 4613 a9bd
00000250: c219 7cbd 45cd e7bc 63d7 83bd 1d3e 4e3c
00000260: 2b11 d2bc ec85 2ebd 15e4 63bd 60dc e53c
00000270: 2520 07bd 9adc 013c 103b 24bc cf54 e23c
00000280: f045 5bbd cba8 31bd 0213 9fbc 4dfc 78bc
00000290: 9656 baba 7849 093c 6e86 483d 2462 87bd
000002a0: 6cc8 62bb cd4b 32bd b99f c83b 29db f8bc
000002b0: 74a1 0dbd a785 3abd a98b 853b ea7d c53c
000002c0: b7bb 103d 00f2 f83b 8315 18bc d3db 19bd
000002d0: a8d2 7bbc 6e5d 8bbd 5423 23bd e932 ebbb
000002e0: 40d0 d2ba 6d24 28bd d87a 0abd 0f74 173c
000002f0: a706 e3bc 2243 bcba a3ea 77bc 6a38 13bc
00000300: cb2c ccbc 2a6a 4abc acb1 7f3c eb6b 55bd
00000310: dcbe 3c3c d261 d73c 724e 9bbd 7dc7 8cbd
00000320: fdcc 35bd 9a20 7fbd d9bd c53c 0a8b 40bd
00000330: bc64 8c3b 228e 903b 8acb 1d3c 909f 7fbd
00000340: 62cc 01bd 4b1b 69bb 4411 063c da4d 04bd
00000350: a318 123d 2de7 b73c 48e1 54bd ce63 85bc
00000360: a5d6 c23c 254d d93a 98a5 bfbc 7bc7 08bb
00000370: eed9 87bd bbb7 f7bb b13c c3bc a374 223d
00000380: 4b9e 7dbd ce96 113a 87d2 ecbc 02ca 28bd
00000390: 5f58 19bd e0d3 0ebd e7a2 a5bc 041f f4bc
000003a0: f6f3 b7bc 5d8a 45bd 0b83 d2bb 22d8 ec3c
000003b0: 09c9 83bc e21c 36bd 82e1 383d 96aa efbc
000003c0: f35b d3bc eec4 64bd 1e65 e03b 4555 3e3d
000003d0: 7dd4 953b cfcb 81bb 5a8f 82bd f8ee 3bbd
000003e0: bd12 93bd d92e cb3c 1a78 c6bc 1c25 ec3c
000003f0: 4750 5ebd 49ab 3ebc c80d bfbc 0d22 39bc

net.2.bias f4 [256]
-0.053812925 -0.058219317 0.048504297 -0.072180316 -0.022715302 0.29767817 0.22216365 0.32909277
0.010548764 -0.039419934 0.015954833 -0.019075043 0.258667 0.16821857 0.020269847 0.23809305
-0.07600781 -0.070997186 0.018249664 0.52573 0.030654063 0.26171875 0.27972293 -0.09752747
0.21774124 -0.048133 -0.03075502 0.30987966 0.34788907 0.2448876 0.02760807 -0.026932478
0.019759193 0.19310194 0.1792866 0.012161439 0.8468048 0.24114403 -0.06839647 0.30496132
0.30814493 -0.04532159 -0.012810393 0.38946497 0.2508997 0.22761884 -0.020513961 -0.06089699
0.6475641 -0.021148931 0.49294052 -0.046829704 0.0154276565 0.12744385 -0.037105016 -0.02783706
0.3063085 0.1698635 -0.077306286 -0.06119513 -0.029040651 0.015682528 0.24839433 0.22242303
0.15586409 -0.0035354008 0.014297105 0.022182522 0.36590838 0.27725738 0.22038442 0.38593492
-0.037953246 0.3754094 0.24768415 0.0051304856 0.12478713 -0.07628874 0.35930213 -0.049530175
-0.026033163 0.025043193 0.25713882 -0.016486883 0.2418026 -0.012606366 -0.061526183 0.23182741
0.015174956 0.468283 -0.081601545 0.32458833 0.016135719 0.3163683 0.2826257 -0.07741739
0.31696898 0.75910884 -0.057231072 0.3392701 0.7735703 0.24817029 0.34302062 -0.016496828
-0.05652661 0.22622885 -0.08235879 -0.023339603 -0.03500162 0.041263677 0.2597559 -0.070089586
-0.019035392 0.39556953 0.30010536 0.32920167 0.21491611 0.4575174 -0.047606707 -0.031321455
0.38053986 -0.0843475 0.03657612 -0.088728204 0.037885707 0.00061362365 0.29920304 -0.067489274
0.5963829 0.030367216 -0.053524125 0.17681333 0.2593066 0.25582874 0.331645 -0.041888114
0.19234222 0.30337232 -0.01034317 -0.062018186 0.25315952 -0.22029449 0.26938248 0.3429926
-0.044055123 -0.021717303 -0.052700587 0.52573264 0.0210696 0.64107114 0.622288 -0.078795046
-0.086480945 0.020086657 0.24197997 0.005412336 0.30117607 0.16027288 0.37505168 0.16781992
-0.032250542 -0.035186205 0.34901688 -0.077989124 -0.053936083 0.53456783 0.2128895 0.23851347
0.26748502 -0.09767886 0.45852214 0.049684424 -0.044446636 -0.036432534 0.32338893 -0.0040638126
0.16632326 0.18778192 -0.068847254 -0.008187324 0.7457003 0.3344944 -0.050416328 0.015567205
-0.03294754 0.2343483 0.2949248 -0.048258834 0.0059265555 -0.09538847 0.62769175 0.00081428466
-0.014178924 0.069634154 -0.060137462 -0.04852998 0.014868335 -0.061320286 0.15540023 0.020962507
0.25112054 0.021385333 -0.046899825 0.25715292 0.013805879 -0.024864981 0.012820109 0.15188737
0.3295671 0.34459138 0.38703194 0.29204327 0.2517075 0.3153631 -0.079034425 -0.03256805
0.24606995 0.7011016 0.23435824 0.28456023 -0.018216712 0.62998736 0.39658865 0.03345727
0.20258208 0.689993 0.0506683 -0.03833534 0.2944234 0.017726202 0.37683856 0.2511009
0.19583197 0.023442695 -0.019079065 0.42803773 -0.03948446 0.37801352 0.37052143 0.57895595
-0.042068485 -0.012860609 0.020419106 0.37933606 0.7368009 -0.0227775 0.21164721 -0.0325271
0.3955004 0.7284846 0.28414315 0.21511428 -0.009758277 -0.035612132 0.18726827 0.1630807
00000000: f16a 5cbd 6177 6ebd 71ac 463d 46d3 93bd
00000010: 7115 babc 4669 983e de7e 633e d97e a83e
00000020: b9d4 2c3c cc76 21bd b6b3 823c 4443 9cbc
00000030: 0070 843e 7d41 2c3e f30c a63c aace 733e
00000040: fca9 9bbd f966 91bd 5280 953c 3e96 063f
00000050: 3b1e fb3c 0000 863e d837 8f3e 7bbc c7bd
00000060: 8ff7 5e3e 1c27 45bd f4f1 fbbc 8ca8 9e3e
00000070: 841e b23e d1c3 7a3e 522a e23c 80a1 dcbc
00000080: 08de a13c 84bc 453e e896 373e c640 473c
00000090: 33c8 583f 76ee 763e 7313 8cbd e423 9c3e
000000a0: 2cc5 9d3e 22a3 39bd afe2 51bc f467 c73e
000000b0: ed75 803e ea14 693e e50c a8bc 1f6f 79bd
000000c0: c3c6 253f 8640 adbc b362 fc3e 81d0 3fbd
000000d0: 48c4 7c3c a480 023e 6efb 17bd 8c0a e4bc
000000e0: 78d4 9c3e b3f0 2d3e c252 9ebd bfa7 7abd
000000f0: a9e6 edbc a578 803c 155b 7e3e ddc2 633e
00000100: d69a 1f3e 2fb2 67bb 683e 6a3c 1fb8 b53c
00000110: 5858 bb3e aef4 8d3e 74ac 613e 4399 c53e
00000120: dd74 1bbd a935 c03e eaa0 7d3e a21d a83b
00000130: 6590 ff3d 453d 9cbd 73f6 b73e 27e0 4abd
00000140: 8043 d5bc 6227 cd3c b3a7 833e 800f 87bc
00000150: 1a9b 773e ee8a 4ebc e102 7cbd 2a64 6d3e
00000160: 61a0 783c cac2 ef3e b61e a7bd 7130 a63e
00000170: 0e2f 843c 07fb a13e 51b4 903e 028d 9ebd
00000180: c249 a23e f554 423f 216b 6abd d0b4 ad3e
00000190: b408 463f 5a20 7e3e 66a0 af3e 5b24 87bc
000001a0: 7288 67bd 89a8 673e baab a8bd b232 bfbc
000001b0: dc5d 0fbd 1a04 293d bafe 843e 218b 8fbd
000001c0: 1cf0 9bbc 1788 ca3e 69a7 993e 1f8d a83e
000001d0: f812 5c3e b83f ea3e 40ff 42bd ed4a 00bd
000001e0: 1fd6 c23e 62be acbd d7d0 153d 22b7 b5bd
000001f0: 0b2e 1b3d 96db 203a 2431 993e d137 8abd
00000200: 8dac 183f abc4 f83c 1d3c 5bbd 8e0e 353e
00000210: d6c3 843e fcfb 823e 60cd a93e df92 2bbd
00000220: 5cf5 443e 9e53 9b3e 6676 29bc c806 7ebd
00000230: 209e 813e e194 61be 80ec 893e ba9c af3e
00000240: 2573 34bd 7ce8 b1bc 92dc 57bd 6a96 063f
00000250: 279a ac3c 3d1d 243f 444e 1f3f 4c5f a1bd
00000260: ec1c b1bd c68c a43c 99c9 773e f759 b13b
00000270: c033 9a3e 931e 243e c606 c03e fcd8 2b3e
00000280: 2519 04bd 691f 10bd 57b2 b23e c3b8 9fbd
00000290: 15ec 5cbd 70d9 083f b5ff 593e e03c 743e
000002a0: ccf3 883e db0b c8bd 6ac3 ea3e e581 4b3d
000002b0: ad0d 36bd 483a 15bd 3c93 a53e bb29 85bb
000002c0: a550 2a3e e749 403e caff 8cbd 2024 06bc
000002d0: 37e6 3e3f da42 ab3e 5a81 4ebd 970d 7f3c
000002e0: 00f4 06bd 00f9 6f3e 6200 973e 0eab 45bd
000002f0: 8d33 c23b 085b c3bd 68b0 203f b875 553a
00000300: b84e 68bc 5a9c 8e3d b352 76bd 5fc7 46bd
00000310: 519a 733c fb2a 7bbd 3d21 1f3e 90b9 ab3c
00000320: df92 803e 4b30 af3c 081a 40bd 8ca9 833e
00000330: 0e32 623c a5b1 cbbc 6f0b 523c 5d88 1b3e
00000340: 05bd a83e 486e b03e 0d29 c63e b286 953e
00000350: cedf 803e 4677 a13e cddc a1bd 1366 05bd
00000360: c3f9 7b3e 657b 333f 9bfb 6f3e e1b1 913e
00000370: 373b 95bc da46 213f ab0d cb3e 7e0a 093d
00000380: ad71 4f3e 62a3 303f 9089 4f3d 8405 1dbd
00000390: aabe 963e 8a36 913c fcf0 c03e 4c90 803e
000003a0: 2d88 483e e50a c03c b34b 9cbc c327 db3e
000003b0: 75ba 21bd fd8a c13e fcb4 bd3e 7536 143f
000003c0: 0150 2cbd 4eb5 52bc f845 a73c 5638 c23e
000003d0: fc9e 3c3f e197 babc 0cba 583e 233b 05bd
000003e0: 077f ca3e f77d 3a3f 367b 913e eb46 5c3e
000003f0: 2ee1 1fbc 07de 11bd 41c3 3f3e a1fe 263e

net.4.weight f4 [1, 256]
-0.006244142 0.03460434 0.020586565 0.003574421 0.048128746 0.007360514 -0.028094964 -0.3358164
0.008178977 -0.0063873255 -0.005089865 -0.00053712126 -0.09256953 -0.14896227 -0.0022785848 0.16600674
0.025634699 0.041436143 0.023632716 0.0511792 0.005021867 -0.0061155357 -0.05779764 0.0008319578
-0.05481949 0.009656021 0.042553455 -0.20516545 0.2566516 -0.0074294577 0.004901277 -0.008369324
-0.009781503 -0.012966477 -0.04591818 0.031069687 0.3626122 -0.16076082 0.33738095 0.0015214197
-0.18450035 -0.018589562 -8.6848275e-05 -0.25794291 -0.043390352 -0.06004939 0.024500618 -0.03490688
0.15420054 -0.004811043 0.078998506 0.04815179 0.016197369 -0.05492582 0.021285774 -0.029204862
-0.027669186 -0.086294085 0.008047673 0.0016594004 0.01936765 0.010782481 -0.09353077 -0.03126368
-0.035736308 0.04587969 0.012369326 -0.0075102556 -0.019085057 -0.05054165 -0.11214905 -0.13527283
0.020242946 -0.019213345 -0.14387345 0.047705606 -0.13247454 0.03354128 0.3026089 0.015525035
0.00019602248 0.045037318 0.32640347 -0.027862247 -0.035613567 0.007088752 0.012274637 -0.037502415
-0.012329659 0.2440374 0.022359617 0.038062714 -0.013469331 -0.019350361 -0.015917504 0.00146882
-0.026056448 0.34220916 0.033506274 -0.15697162 0.35472125 -0.01275434 -0.1720917 -0.007927235
-0.00205453 -0.06015582 0.04550995 -0.014993996 0.0045013535 0.022851622 -0.01586859 -0.0066853105
0.029591883 -0.123376645 -0.04633713 -0.027128864 -0.05394335 -0.083463304 -0.010932924 0.007027202
-0.048702206 0.06893758 -0.0023488335 0.011868978 0.025392372 0.03868428 -0.20762256 0.039160106
0.15675767 0.02283312 -0.011873967 -0.045999493 -0.017780123 0.15884477 -0.0881315 -0.027245585
-0.0367755 -0.02069418 0.01214823 -0.0041883937 -0.03399184 0.22519493 -0.022815488 -0.03008672
0.032541204 -0.00015410567 -0.0031943151 0.0717753 0.013480687 0.1921368 0.101198725 -0.0072809635
-0.010913249 0.021249048 -0.2512742 0.02607963 -0.050880674 -0.04967158 -0.14154498 -0.33784384
-0.008456698 0.005898861 0.39513376 -0.01563443 0.03689364 0.16915719 -0.044430528 -0.06440299
-0.025165701 -0.017531626 -0.099554285 0.024199782 0.0040546036 0.0073038586 0.0047195475 -0.0014107961
-0.029373424 -0.041161332 -0.014729684 0.023228338 0.3965273 -0.025540434 0.006294104 -0.0008731176
0.024283782 -0.00059286936 -0.17918892 -0.00021579981 0.0014289549 0.023798326 0.20122427 0.008864825
-0.0035208422 0.088458076 0.042891134 0.04829182 -0.02290753 0.0045148022 -0.039795008 -0.005887408
-0.08959051 0.009155871 0.034839697 -0.032555055 -0.0104376115 0.03253841 0.0051727914 -0.07629817
-0.122236 -0.19637378 -0.03627907 -0.017460389 -0.025273174 -0.09568126 0.012230689 0.025625188
-0.020068215 0.13097556 -0.0018533533 -0.03313186 0.016110552 0.068120636 -0.02520169 0.014165011
-0.015260282 0.1553585 -0.0071161347 0.009044667 -0.10880545 0.03124331 -0.079048365 -0.037119444
-0.036275275 -0.01062949 0.025749788 0.12949194 0.014498892 -0.045531753 -0.058193736 0.12785368
0.043139428 -0.021940175 0.010885184 -0.08676594 0.27115855 -0.0016462267 -0.038411334 -0.030270413
-0.09406355 0.37263158 -0.080798395 -0.02528227 -0.007935198 0.01812955 -0.074601695 -0.04282551
00000000: a99b ccbb 48bd 0d3d 28a5 a83c d540 6a3b
00000010: a622 453d 7730 f13b 6927 e6bc 21f0 abbe
00000020: 1e01 063c c54c d1bb e2c8 a6bb 99cd 0cba
00000030: 1895 bdbd 9189 18be 4f54 15bb acfd 293e
00000040: dcff d13c f2b8 293d 6699 c13c 48a1 513d
00000050: 798e a43b d564 c8bb 38bd 6cbd be17 5a3a
00000060: 678a 60bd 4a34 1e3c 884c 2e3d e416 52be
00000070: d767 833e cf72 f3bb e49a a03b 7d1f 09bc
00000080: 9942 20bc 5971 54bc b414 3cbd db85 fe3c
00000090: 4ea8 b93e 7c9e 24be 32bd ac3e 606a c73a
000000a0: a9ed 3cbe 2349 98bc 5022 b6b8 1811 84be
000000b0: 15ba 31bd 59f6 75bd 85b5 c83c 84fa 0ebd
000000c0: bfe6 1d3e f4a5 9dbb f8c9 a13d d03a 453d
000000d0: 58b0 843c e6f9 60bd 815f ae3c 093f efbc
000000e0: 7daa e2bc f4ba b0bd 63da 033c 3d80 d93a
000000f0: e8a8 9e3c 01a9 303c 0f8d bfbd 580e 00bd
00000100: 3c60 12bd 58ec 3b3d b7a8 4a3c 9718 f6bb
00000110: 4458 9cbc c304 4fbd 67ae e5bd f684 0abe
00000120: 89d4 a53c 4e65 9dbc 9053 13be f466 433d
00000130: 68a7 07be 9562 093d 8eef 9a3e b75c 7e3c
00000140: 628b 4d39 0d79 383d 5b1e a73e 5e3f e4bc
00000150: 88df 11bd c348 e83b 8f1b 493c 229c 19bd
00000160: 5702 4abc f1e4 793e 842b b73c a6e7 1b3d
00000170: 78ae 5cbc a684 9ebc 6d65 82bc 6c85 c03a
00000180: 5574 d5bc 0a36 af3e e03d 093d 2bbd 20be
00000190: 069e b53e 94f7 50bc ce38 30be 3ce1 01bc
000001a0: 4ba5 06bb f365 76bd a468 3a3d 61a9 75bc
000001b0: 1780 933b 5333 bb3c d8fe 81bc 7310 dbbb
000001c0: ad6a f23c e5ac fcbd 01cc 3dbd 5a3d debc
000001d0: b4f3 5cbd cfee aabd 0220 33bc 7144 e63b
000001e0: f77b 47bd 252f 8d3d e3ee 19bb 1a76 423c
000001f0: aa03 d03c 6873 1e3d 029b 54be 5966 203d
00000200: 1585 203e 860c bb3c 078b 42bc f769 3cbd
00000210: 9fa7 91bc 34a8 223e 4a7e b4bd 2232 dfbc
00000220: e8a1 16bd d786 a9bc 5f09 473c cb3e 89bb
00000230: 073b 0bbd 8099 663e 8ce7 babc 6d78 f6bc
00000240: ed49 053d 6d97 21b9 b757 51bb eefe 923d
00000250: 19de 5c3c 82bf 443e 4741 cf3d 2695 eebb
00000260: 7ccd 32bc 7c12 ae3c 03a7 80be f3a4 d53c
00000270: 4168 50bd 6d74 4bbd 2bf1 10be def9 acbe
00000280: f68d 0abc 3c4b c13b f94e ca3e c713 80bc
00000290: c91d 173d 8b37 2d3e c9fc 35bd b7e5 83bd
000002a0: 4d28 cebc 7c9e 8fbc 1ee3 cbbd 9f3e c63c
000002b0: 7bdc 843b 3555 ef3b 6fa6 9a3b 76ea b8ba
000002c0: 89a0 f0bc c998 28bd c654 71bc 5b49 be3c
000002d0: a005 cb3e 2c3a d1bc c53e ce3b eee1 64ba
000002e0: c8ee c63c ca6a 1bba 4d7d 37be 5248 62b9
000002f0: c54b bb3a b5f4 c23c bc0d 4e3e c53d 113c
00000300: eebd 66bb 8229 b53d 9dae 2f3d a5cd 453d
00000310: 93a8 bbbc e8f0 933b 1700 23bd 28eb c0bb
00000320: 3b7b b7bd 8202 163c 12b4 0e3d 7358 05bd
00000330: 8402 2bbc ff46 053d 8580 a93b 3742 9cbd
00000340: de56 fabd 3516 49be 5d99 14bd 1709 8fbc
00000350: b009 cfbc 89f4 c3bd 3a63 483c eaeb d13c
00000360: 1966 a4bc 751e 063e 38ec f2ba 46b5 07bd
00000370: 47fa 833c d582 8b3d c673 cebc 5d14 683c
00000380: 4306 7abc 4c16 1f3e 772e e9bb 1530 143c
00000390: 64d5 debd f8f1 ff3c 1ce4 a1bd 8f0a 18bd
000003a0: 6295 14bd 5027 2ebc 38f1 d23c 8999 043e
000003b0: c38c 6d3c 817f 3abd 8e5c 6ebd 13ec 023e
000003c0: f8b2 303d e2bb b3bc c557 323c 57b2 b1bd
000003d0: 4bd5 8a3e 34c6 d7ba 3455 1dbd a8f9 f7bc
000003e0: 64a4 c0bd 91c9 be3e a179 a5bd c31c cfbc
000003f0: a202 02bc 6c84 943c c6c8 98bd cd69 2fbd

exp_avg f4 [256, 17]
-1.3148527e-05 -8.127012e-05 -4.4178423e-06 -8.254297e-07 -5.702792e-06 1.0493187e-05 1.4858238e-05 6.245171e-06
1.6251324e-05 -5.8262417e-06 -2.9907107e-05 -7.347888e-05 -8.385721e-05 -0.00022310496 -0.00013330957 9.662596e-05
-0.00012947312 5.04612e-05 0.00034477757 2.0358824e-05 1.8300403e-05 2.4805475e-05 -8.982087e-05 -8.872954e-05
-4.2363995e-06 -1.9365796e-05 -5.049426e-06 0.0001975548 -0.0012459069 -0.0003633033 -0.0005977037 -0.00012147837
-0.00016109078 0.0003599351 -0.00026637796 -0.0013169487 0.00026131983 9.091092e-05 0.00023857747 0.0004968564
9.0243295e-05 3.182723e-05 -0.00020701598 8.4620064e-05 0.00055701303 -0.0013445056 0.0006133507 -0.0004968453
0.0031796538 -0.0005026178 0.002198859 -0.00010336954 -0.0010772898 -0.00025888745 -0.00015832159 -0.00023378541
-4.2739288e-05 0.00025847368 -8.5404616e-05 -0.00035467575 -4.588482e-05 -0.001214704 0.007922699 0.0013294922
0.0052813673 2.391014e-05 0.00045599506 -0.0028421693 -6.550553e-05 -0.00027520294 -5.742134e-05 -0.00014613646
-6.852894e-05 3.898199e-05 0.00014978801 -0.000117460375 -0.00047648788 7.292039e-05 -0.00042140635 0.0075690704
-0.0007197976 0.0050884127 0.0027143457 -0.00021234484 -0.00243167 -3.3553206e-05 -0.00021727548 -2.5751544e-05
-6.231545e-05 -4.8292266e-05 1.8783896e-05 6.451676e-05 -5.3101736e-05 -0.00034351056 8.217993e-05 -0.00031583014
0.0044180183 -0.0003800576 0.0021353294 0.0008575998 0.00046875208 -0.0010224727 1.7898687e-05 9.211289e-05
-1.5503352e-06 2.3724115e-06 -7.007059e-06 -2.3047856e-05 -1.7704635e-05 1.2151059e-05 5.436171e-05 -1.965924e-05
4.9726612e-05 -0.0004522293 -0.00020512777 -0.00035416856 -0.00031025143 0.000139912 0.00037364505 2.9013696e-05
0.00015292557 -5.6462693e-05 -8.508379e-05 -3.6464244e-05 -4.018812e-06 6.170554e-05 -4.0720162e-05 1.8830899e-05
-3.239482e-05 -0.00045392013 0.002180441 0.00021288435 0.00087630213 0.0014046372 -0.0009605709 -0.0019679917
-6.0975184e-05 -0.00025095078 -5.17425e-05 -9.133531e-05 -1.8191098e-05 0.00011813806 0.00016210732 4.137438e-06
0.00020275201 -0.00018107737 -0.00047337325 0.0013230749 -0.00023689031 0.0014866508 0.00048356107 -0.0008074368
-0.0016948824 -3.424195e-05 -0.00014660721 -3.3079796e-05 6.224797e-07 -1.0299149e-05 3.881522e-05 4.974265e-05
5.6043627e-06 0.0002551676 -3.3628847e-05 -0.0002685046 -0.0010743988 0.0016059641 -0.0010906551 -0.0006649441
-0.00017554256 -0.0003209608 4.993525e-05 0.0003009534 1.1221306e-06 2.2832814e-05 3.7901468e-06 -6.562195e-05
-6.8248846e-05 4.7516387e-06 0.00011193096 1.7615186e-05 0.0001620988 -0.0010910216 0.00027758107 -0.00045599128
9.1820575e-06 -0.00073262496 -0.00029037686 -7.747587e-05 -0.00028621193 0.00014999886 2.8017745e-05 0.000116573916
0.00022553386 -7.75947e-06 -4.518475e-05 -0.000218242 9.8079276e-05 0.0001804179 0.0010957273 0.00026484992
-0.00036226364 0.0031964849 -0.0012536644 0.0014057177 -0.00031408248 -0.0016016387 0.00019484202 -1.30531635e-05
0.00021029732 0.00061491114 0.00027114697 2.819691e-05 -8.894803e-05 0.00018253755 0.00012274395 -0.0011593183
0.00012749822 -0.0008728698 0.002970507 -0.0009951678 0.0019011182 -0.000113773574 -0.00061883475 -3.5900382e-05
-0.00012781103 -3.9279028e-05 0.00020070194 0.00022765539 -1.8394652e-05 -6.4899396e-06 -0.000109421264 -0.0006747168
0.0039940607 0.00014420536 0.0025062142 0.00075169606 7.418123e-05 -0.0012727546 -0.00013908079 -0.00029801868
0.00045304533 0.0002195164 0.00034833277 0.0005031823 -8.9777364e-05 -6.8164685e-05 -0.00020797174 3.939334e-05
0.00077366136 -0.00161468 0.00084439514 -0.0025373485 0.006689595 -0.002522771 0.0025108687 -5.7302976e-05
00000000: 7e98 5cb7 906f aab8 fa3c 94b6 1993 5db5
00000010: 9c5a bfb6 e50b 3037 a547 7937 9c8d d136
00000020: 7453 8837 097f c3b6 06e1 fab7 ac18 9ab8
00000030: 7fdc afb8 48f1 69b9 04c9 0bb9 aba3 ca38
00000040: 2dc3 07b9 4da6 5338 43c3 b439 3ec8 aa37
00000050: d183 9937 5a15 d037 365e bcb8 4f14 bab8
00000060: 6526 8eb6 bb73 a2b7 3d6e a9b6 b626 4f39
00000070: b34d a3ba be79 beb9 37af 1cba 34c2 feb8
00000080: 7aea 28b9 acb5 bc39 a5a8 8bb9 779d acba
00000090: c101 8939 6ea7 be38 a72a 7a39 783f 023a
000000a0: 0041 bd38 3a7e 0538 6e12 59b9 0d76 b138
000000b0: 8304 123a 1f3a b0ba 45c9 203a b93e 02ba
000000c0: bd61 503b 1cc2 03ba bb1a 103b 19c8 d8b8
000000d0: d933 8dba 49bb 87b9 2103 26b9 4b24 75b9
000000e0: f642 33b8 c083 8739 411b b3b8 c6f3 b9b9
000000f0: 7374 40b8 b436 9fba 35ce 013c 5b42 ae3a
00000100: 520f ad3b a292 c837 9f12 ef39 b043 3abb
00000110: 0360 89b8 1d49 90b9 b2d7 70b8 353c 19b9
00000120: 32b7 8fb8 9880 2338 6a10 1d39 0f55 f6b8
00000130: 1fd1 f9b9 d6ec 9838 34f0 dcb9 f705 f83b
00000140: cdb0 3cba b3bc a63b 2ae3 313b e2a8 5eb9
00000150: a75c 1fbb 7bbb 0cb8 71d4 63b9 0505 d8b7
00000160: 5aaf 82b8 6d8d 4ab8 1c92 9d37 2c4d 8738
00000170: 8eb9 5eb8 3519 b4b9 0458 ac38 0196 a5b9
00000180: 06c5 903b 7842 c7b9 e2f0 0b3b 8cd0 603a
00000190: d7c2 f539 7e04 86ba 2325 9637 bb2c c138
000001a0: 1d15 d0b5 b835 1f36 2e1e ebb6 e556 c1b7
000001b0: 6a84 94b7 67dc 4b37 7102 6438 e5e9 a4b7
000001c0: 8b91 5038 3019 edb9 9117 57b9 b3af b9b9
000001d0: 3ea9 a2b9 57b5 1239 cae5 c339 7062 f337
000001e0: a55a 2039 5bd2 6cb8 036f b2b8 2ff1 18b8
000001f0: 55d9 86b6 e967 8138 f1ca 2ab8 0cf7 9d37
00000200: acdf 07b8 21fc edb9 bbe5 0e3b b539 5f39
00000210: a4b7 653a ce1b b83a d2ce 7bba 6cf9 00bb
00000220: 9bbf 7fb8 0b92 83b9 1606 59b8 458b bfb8
00000230: 1699 98b7 e3c0 f738 5afb 2939 52d4 8a36
00000240: d499 5439 96df 3db9 152f f8b9 076b ad3a
00000250: c265 78b9 b9db c23a 7886 fd39 2baa 53ba
00000260: d126 deba 049f 0fb8 93ba 19b9 29bf 0ab8
00000270: 7b18 2735 82ca 2cb7 86cd 2238 c4a2 5038
00000280: 1c0d bc36 04c8 8539 b30c 0db8 14c6 8cb9
00000290: d7d2 8cba 377f d23a 50f4 8eba a54f 2eba
000002a0: d911 38b9 a146 a8b9 9171 5138 48c9 9d39
000002b0: 1d9c 9635 1889 bf37 3a5a 7e36 849e 89b8
000002c0: d220 8fb8 4470 9f36 7abc ea38 53c4 9337
000002d0: 11f9 2939 9c00 8fba 4d88 9139 1d12 efb9
000002e0: a30c 1a37 a10d 40ba b93d 98b9 8a7a a2b8
000002f0: b70e 96b9 0349 1d39 a607 eb37 2579 f438
00000300: 497d 6c39 ab2e 02b7 c284 3db8 e4d7 64b9
00000310: e9af cd38 902e 3d39 829e 8f3a 8edb 8a39
00000320: 34ee bdb9 1e7c 513b ff51 a4ba 0f40 b83a
00000330: 70ab a4b9 14ee d1ba 824e 4c39 e9fe 5ab7
00000340: 4283 5c39 fd31 213a bb28 8e39 6788 ec37
00000350: 9c89 bab8 8d67 3f39 d4b4 0039 44f4 97ba
00000360: 0bb1 0539 4dd1 64ba d6ac 423b 4a70 82ba
00000370: f12e f93a b999 eeb8 4c39 22ba be93 16b8
00000380: 0305 06b9 89bf 24b8 8473 5239 c7b6 6e39
00000390: 374e 9ab7 28c4 d9b6 1879 e5b8 7adf 30ba
000003a0: 9ce0 823b d535 1739 4c3f 243b 780d 453a
000003b0: bf91 9b38 8fd2 a6ba 37d6 11b9 643f 9cb9
000003c0: b786 ed39 fc2d 6639 6fa0 b639 fee7 033a
000003d0: db46 bcb8 a3f3 8eb8 fd12 5ab9 473a 2538
000003e0: 89cf 4a3a aca3 d3ba 665a 5d3a a549 26bb
000003f0: 6434 db3b 1355 25bb 638d 243b 9a58 70b8

exp_avg_sq f4 [256, 17]
3.5576475e-10 8.650941e-09 6.5151623e-10 1.3647647e-09 7.506495e-10 3.475242e-09 2.8785159e-09 9.128674e-10
2.1695298e-08 5.6847536e-09 2.2354858e-08 3.2853518e-07 3.6547038e-07 5.1625295e-07 3.3250572e-07 3.0544317e-07
5.03706e-07 5.986342e-09 1.1982995e-07 1.6213075e-08 3.869031e-08 1.7599683e-08 1.3283451e-07 6.349886e-08
4.23598e-08 1.6487835e-06 2.612937e-07 1.4618784e-06 2.8597447e-05 1.534808e-05 1.421497e-05 1.5207434e-05
1.2571344e-05 1.0629663e-05 8.290899e-08 2.314953e-06 3.6771333e-08 4.6994717e-08 2.971072e-08 2.9234525e-07
1.01004055e-07 4.8822827e-08 7.725301e-07 3.758279e-07 1.418155e-06 2.0076146e-05 1.630221e-05 3.1641663e-05
2.674039e-05 4.3648957e-05 3.1325166e-05 2.2094648e-07 6.5202316e-06 5.8744087e-07 9.777171e-07 6.447815e-07
1.3543631e-06 2.96216e-06 1.1045744e-06 1.6908572e-05 8.58734e-06 1.7334858e-05 0.00023703062 0.00043334137
0.00018430519 0.00055773836 0.00053862476 0.00022208462 4.437918e-08 1.0103466e-06 4.372909e-08 1.2566913e-07
4.180618e-08 4.4921376e-07 2.7175207e-07 6.3910925e-08 4.9265764e-06 1.1812094e-06 2.4423803e-06 4.022199e-05
2.5358078e-05 2.3039609e-05 4.9855593e-05 1.7631897e-05 7.7099576e-05 1.5682447e-08 3.6770237e-07 8.866048e-09
1.4517209e-08 1.0872692e-08 1.0706122e-07 8.1504254e-08 1.8653298e-08 5.574084e-07 1.2469225e-07 4.1011174e-07
9.231562e-06 5.275804e-06 4.3925397e-06 1.1187781e-05 1.2003717e-05 1.27197045e-05 2.0027247e-09 5.9102913e-08
3.9690784e-09 6.612841e-09 4.819932e-09 2.1754872e-08 1.7400797e-08 1.11663745e-08 5.62265e-08 9.000567e-08
2.4336293e-07 6.0745506e-06 2.6823354e-06 2.5464421e-06 6.9312528e-06 2.6269404e-06 4.510329e-06 3.027795e-08
6.3865207e-07 1.9599293e-08 1.2910651e-07 2.6435497e-08 4.268971e-07 2.1671775e-07 3.289077e-08 4.518751e-06
2.434053e-07 1.4415502e-06 1.7943014e-05 9.519207e-06 2.3376968e-05 2.898648e-05 2.6116306e-05 2.0141313e-05
8.1958504e-08 1.3443889e-06 5.306579e-08 2.3852672e-07 5.38813e-08 1.0202754e-06 6.63726e-07 8.8963034e-08
1.0251209e-05 5.6695905e-07 3.3696497e-06 2.4580233e-05 1.7048971e-05 2.0639902e-05 2.6018335e-05 2.0518706e-05
3.5427234e-05 3.471023e-08 5.184505e-07 3.6455553e-08 5.729662e-08 2.7232359e-08 4.6924407e-07 1.766547e-07
6.6680514e-08 2.729944e-06 5.020956e-07 1.951541e-06 1.5836997e-05 3.5394987e-05 4.3045737e-05 1.4557638e-05
1.3585146e-05 1.94829e-05 1.1415709e-08 3.684524e-07 4.6930364e-08 5.4669904e-08 4.8891412e-08 9.8984145e-08
1.8414552e-07 8.925529e-08 1.0078174e-06 6.1215394e-07 1.6097345e-06 2.6009046e-05 2.3366685e-05 2.802616e-05
3.9299986e-05 9.395146e-05 2.0336889e-05 2.2535492e-08 6.2022775e-07 1.2997906e-08 1.6090967e-08 1.0648563e-08
6.687345e-08 4.7885376e-08 2.014054e-08 3.363588e-07 9.027488e-08 3.788761e-07 1.297433e-05 7.3127703e-06
1.794404e-05 1.29755845e-05 6.493294e-06 1.5818852e-05 7.021426e-08 1.8526915e-06 3.9288196e-08 2.8310165e-08
4.89079e-08 2.1620167e-07 1.975524e-07 1.2647502e-07 5.892251e-07 7.268606e-07 1.8860715e-06 8.607462e-05
1.829189e-05 3.3338492e-05 5.039744e-05 3.4621724e-05 3.715512e-05 1.314264e-07 2.2621048e-06 6.9082255e-08
2.9544273e-07 7.978022e-08 1.58606e-06 9.200394e-07 1.3011895e-07 1.214971e-05 7.166921e-07 4.5745796e-06
2.8821485e-05 2.4386194e-05 3.139396e-05 3.298634e-05 2.8515888e-05 7.934554e-05 2.2256447e-07 6.1905153e-06
1.2987951e-07 1.0913888e-07 1.3121794e-07 1.0165815e-06 3.5352397e-07 1.4116068e-07 1.3308493e-06 1.0386816e-06
5.6074227e-06 0.0001157305 5.4993576e-05 7.334307e-05 7.5371565e-05 7.879085e-05 0.0002287885 6.4727645e-09
00000000: 7095 c32f 3e9f 1432 6116 3330 6492 bb30
00000010: 4356 4e30 1bd1 6e31 63cf 4531 55ed 7a30
00000020: 775c ba32 9f53 c331 da06 c032 8861 b034
00000030: de35 c434 a294 0a35 3d83 b234 cafb a334
00000040: 6a36 0735 6cb0 cd31 9baa 0034 ee44 8b32
00000050: 722c 2633 1d2e 9732 46a1 0e34 de5c 8833
00000060: 18ef 3533 c54b dd35 ef47 8c34 c235 c435
00000070: 8de4 ef37 c0bf 8037 d57c 6e37 6f23 7f37
00000080: 83e9 5237 0e56 3237 b30b b233 975a 1b36
00000090: 82ee 1d33 3dd7 4933 9036 ff32 a0f3 9c34
000000a0: 91e7 d833 44b1 5133 dd5f 4f35 65c5 c934
000000b0: 6f57 be35 3269 a837 bbc0 8837 fab6 0438
000000c0: 8d50 e037 b613 3738 2463 0338 4e3d 6d34
000000d0: 5dc8 da36 a1b0 1d35 1b3a 8335 0c15 2d35
000000e0: 90c7 b535 85c9 4636 e340 9435 e2d6 8d37
000000f0: 5812 1037 536a 9137 6c8b 7839 1832 e339
00000100: 0c42 4139 3035 123a 7f32 0d3a 63df 6839
00000110: 6d9b 3e33 3f9b 8735 a5d0 3b33 abef 0634
00000120: 628e 3333 782b f134 52e5 9134 673f 8933
00000130: f84e a536 0c8a 9e35 c6e7 2336 08b4 2838
00000140: 0fb8 d437 2f45 c137 091c 5138 36e8 9337
00000150: 85b0 a138 11b6 8632 a168 c534 4b51 1832
00000160: 5c67 7932 9bca 3a32 87e9 e533 7007 af33
00000170: 093b a032 d0a0 1535 25e3 0534 542d dc34
00000180: 42e1 1a37 d006 b136 a163 9336 27b3 3b37
00000190: 9263 4937 b766 5537 4ea0 0931 57d8 7d33
000001a0: 6260 8831 2a37 e331 929c a531 78df ba32
000001b0: c278 9532 3cd6 3f32 b17d 7133 2449 c133
000001c0: 8ca7 8234 fed3 cb36 2c02 3436 8be3 2a36
000001d0: 0293 e836 7e4a 3036 6e57 9736 f50a 0233
000001e0: d66f 2b35 4d5b a832 87a0 0a34 4614 e332
000001f0: 4a30 e534 ecb2 6834 c943 0d33 c79f 9736
00000200: 5fad 8234 4a7b c135 5484 9637 afb4 1f37
00000210: a819 c437 fe27 f337 5714 db37 24f5 a837
00000220: 2a01 b033 da70 b435 74ea 6333 dd0e 8034
00000230: 1e6b 6733 65f0 8835 e72a 3235 f20b bf33
00000240: 9bfc 2b37 2131 1835 2422 6236 a631 ce37
00000250: 6304 8f37 da23 ad37 f341 da37 961f ac37
00000260: b497 1438 4d14 1533 a62b 0b35 4e93 1c33
00000270: 4d16 7633 97ec e932 6aec fb34 79ae 3d34
00000280: 0032 8f33 1534 3736 bfc7 0635 38f7 0236
00000290: b1d9 8437 1475 1438 028c 3438 943c 7437
000002a0: c2eb 6337 366f a337 d21e 4432 b6cf c534
000002b0: 7b90 4933 32ce 6a33 adfc 5133 1c91 d433
000002c0: 89b9 4534 9dac bf33 5844 8735 e652 2435
000002d0: 0e0e d835 002e da37 9303 c437 b819 eb37
000002e0: 0ad6 2438 ce07 c538 2399 aa37 1294 c132
000002f0: ba7d 2635 654d 5f32 6938 8a32 e0f0 3632
00000300: 119c 8f33 87aa 4d33 8401 ad32 cd94 b434
00000310: 24dd c133 5668 cb34 53ac 5937 3860 f536
00000320: 8886 9637 b6b1 5937 f9e0 d936 bab2 8437
00000330: b3c8 9633 ffa9 f835 d4bd 2833 b62e f332
00000340: ce0e 5233 1025 6834 ca1e 5434 30cd 0734
00000350: 3e2b 1e35 7b1d 4335 ec24 fd35 f682 b438
00000360: 8971 9937 efd4 0b38 d761 5338 cb36 1138
00000370: 02d7 1b38 371e 0d34 aace 1736 5f5a 9433
00000380: 579d 9e34 a453 ab33 9be0 d435 a0f8 7635
00000390: d3b6 0b34 9bd6 4b37 b562 4035 577f 9936
000003a0: abc5 f137 f490 cc37 02ad 0338 d05a 0a38
000003b0: 6735 ef37 5066 a638 0efa 6e34 1fb8 cf36
000003c0: 0275 0b34 bc5f ea33 eae4 0c34 7971 8835
000003d0: f7cb bd34 f491 1734 a29f b235 d468 8b35
000003e0: 6527 bc36 57b4 f238 e7a8 6638 c3cf 9938
000003f0: cd10 9e38 843c a538 f2e6 6f39 0a67 de31
